{"class_name": "Model", "config": {"name": "model_2", "layers": [{"name": "bmm_input", "class_name": "InputLayer", "config": {"batch_input_shape": [null, null, 201], "dtype": "float32", "sparse": false, "name": "bmm_input"}, "inbound_nodes": []}, {"name": "model_1", "class_name": "Model", "config": {"name": "model_1", "layers": [{"name": "input_1", "class_name": "InputLayer", "config": {"batch_input_shape": [null, null, 201], "dtype": "float32", "sparse": false, "name": "input_1"}, "inbound_nodes": []}, {"name": "reshape_1", "class_name": "Reshape", "config": {"name": "reshape_1", "trainable": true, "dtype": "float32", "target_shape": [-1, 201, 1]}, "inbound_nodes": [[["input_1", 0, 0, {}]]]}, {"name": "conv2d_1", "class_name": "Conv2D", "config": {"name": "conv2d_1", "trainable": true, "dtype": "float32", "filters": 64, "kernel_size": [8, 1], "strides": [2, 1], "padding": "same", "data_format": "channels_last", "dilation_rate": [1, 1], "activation": "linear", "use_bias": true, "kernel_initializer": {"class_name": "VarianceScaling", "config": {"scale": 1.0, "mode": "fan_avg", "distribution": "uniform", "seed": null}}, "bias_initializer": {"class_name": "Zeros", "config": {}}, "kernel_regularizer": null, "bias_regularizer": null, "activity_regularizer": null, "kernel_constraint": null, "bias_constraint": null}, "inbound_nodes": [[["reshape_1", 0, 0, {}]]]}, {"name": "p_re_lu_1", "class_name": "PReLU", "config": {"name": "p_re_lu_1", "trainable": true, "dtype": "float32", "alpha_initializer": {"class_name": "Zeros", "config": {}}, "alpha_regularizer": null, "alpha_constraint": null, "shared_axes": [1, 2]}, "inbound_nodes": [[["conv2d_1", 0, 0, {}]]]}, {"name": "conv2d_2", "class_name": "Conv2D", "config": {"name": "conv2d_2", "trainable": true, "dtype": "float32", "filters": 64, "kernel_size": [8, 1], "strides": [2, 1], "padding": "same", "data_format": "channels_last", "dilation_rate": [1, 1], "activation": "linear", "use_bias": true, "kernel_initializer": {"class_name": "VarianceScaling", "config": {"scale": 1.0, "mode": "fan_avg", "distribution": "uniform", "seed": null}}, "bias_initializer": {"class_name": "Zeros", "config": {}}, "kernel_regularizer": null, "bias_regularizer": null, "activity_regularizer": null, "kernel_constraint": null, "bias_constraint": null}, "inbound_nodes": [[["p_re_lu_1", 0, 0, {}]]]}, {"name": "p_re_lu_2", "class_name": "PReLU", "config": {"name": "p_re_lu_2", "trainable": true, "dtype": "float32", "alpha_initializer": {"class_name": "Zeros", "config": {}}, "alpha_regularizer": null, "alpha_constraint": null, "shared_axes": [1, 2]}, "inbound_nodes": [[["conv2d_2", 0, 0, {}]]]}, {"name": "conv2d_3", "class_name": "Conv2D", "config": {"name": "conv2d_3", "trainable": true, "dtype": "float32", "filters": 64, "kernel_size": [8, 1], "strides": [2, 1], "padding": "same", "data_format": "channels_last", "dilation_rate": [1, 1], "activation": "linear", "use_bias": true, "kernel_initializer": {"class_name": "VarianceScaling", "config": {"scale": 1.0, "mode": "fan_avg", "distribution": "uniform", "seed": null}}, "bias_initializer": {"class_name": "Zeros", "config": {}}, "kernel_regularizer": null, "bias_regularizer": null, "activity_regularizer": null, "kernel_constraint": null, "bias_constraint": null}, "inbound_nodes": [[["p_re_lu_2", 0, 0, {}]]]}, {"name": "p_re_lu_3", "class_name": "PReLU", "config": {"name": "p_re_lu_3", "trainable": true, "dtype": "float32", "alpha_initializer": {"class_name": "Zeros", "config": {}}, "alpha_regularizer": null, "alpha_constraint": null, "shared_axes": [1, 2]}, "inbound_nodes": [[["conv2d_3", 0, 0, {}]]]}, {"name": "conv2d_4", "class_name": "Conv2D", "config": {"name": "conv2d_4", "trainable": true, "dtype": "float32", "filters": 64, "kernel_size": [8, 1], "strides": [2, 1], "padding": "same", "data_format": "channels_last", "dilation_rate": [1, 1], "activation": "linear", "use_bias": true, "kernel_initializer": {"class_name": "VarianceScaling", "config": {"scale": 1.0, "mode": "fan_avg", "distribution": "uniform", "seed": null}}, "bias_initializer": {"class_name": "Zeros", "config": {}}, "kernel_regularizer": null, "bias_regularizer": null, "activity_regularizer": null, "kernel_constraint": null, "bias_constraint": null}, "inbound_nodes": [[["p_re_lu_3", 0, 0, {}]]]}, {"name": "p_re_lu_4", "class_name": "PReLU", "config": {"name": "p_re_lu_4", "trainable": true, "dtype": "float32", "alpha_initializer": {"class_name": "Zeros", "config": {}}, "alpha_regularizer": null, "alpha_constraint": null, "shared_axes": [1, 2]}, "inbound_nodes": [[["conv2d_4", 0, 0, {}]]]}, {"name": "conv2d_5", "class_name": "Conv2D", "config": {"name": "conv2d_5", "trainable": true, "dtype": "float32", "filters": 64, "kernel_size": [8, 1], "strides": [2, 1], "padding": "same", "data_format": "channels_last", "dilation_rate": [1, 1], "activation": "linear", "use_bias": true, "kernel_initializer": {"class_name": "VarianceScaling", "config": {"scale": 1.0, "mode": "fan_avg", "distribution": "uniform", "seed": null}}, "bias_initializer": {"class_name": "Zeros", "config": {}}, "kernel_regularizer": null, "bias_regularizer": null, "activity_regularizer": null, "kernel_constraint": null, "bias_constraint": null}, "inbound_nodes": [[["p_re_lu_4", 0, 0, {}]]]}, {"name": "p_re_lu_5", "class_name": "PReLU", "config": {"name": "p_re_lu_5", "trainable": true, "dtype": "float32", "alpha_initializer": {"class_name": "Zeros", "config": {}}, "alpha_regularizer": null, "alpha_constraint": null, "shared_axes": [1, 2]}, "inbound_nodes": [[["conv2d_5", 0, 0, {}]]]}, {"name": "conv2d_6", "class_name": "Conv2D", "config": {"name": "conv2d_6", "trainable": true, "dtype": "float32", "filters": 64, "kernel_size": [8, 1], "strides": [2, 1], "padding": "same", "data_format": "channels_last", "dilation_rate": [1, 1], "activation": "linear", "use_bias": true, "kernel_initializer": {"class_name": "VarianceScaling", "config": {"scale": 1.0, "mode": "fan_avg", "distribution": "uniform", "seed": null}}, "bias_initializer": {"class_name": "Zeros", "config": {}}, "kernel_regularizer": null, "bias_regularizer": null, "activity_regularizer": null, "kernel_constraint": null, "bias_constraint": null}, "inbound_nodes": [[["p_re_lu_5", 0, 0, {}]]]}, {"name": "p_re_lu_6", "class_name": "PReLU", "config": {"name": "p_re_lu_6", "trainable": true, "dtype": "float32", "alpha_initializer": {"class_name": "Zeros", "config": {}}, "alpha_regularizer": null, "alpha_constraint": null, "shared_axes": [1, 2]}, "inbound_nodes": [[["conv2d_6", 0, 0, {}]]]}, {"name": "conv2d_7", "class_name": "Conv2D", "config": {"name": "conv2d_7", "trainable": true, "dtype": "float32", "filters": 64, "kernel_size": [8, 1], "strides": [2, 1], "padding": "same", "data_format": "channels_last", "dilation_rate": [1, 1], "activation": "linear", "use_bias": true, "kernel_initializer": {"class_name": "VarianceScaling", "config": {"scale": 1.0, "mode": "fan_avg", "distribution": "uniform", "seed": null}}, "bias_initializer": {"class_name": "Zeros", "config": {}}, "kernel_regularizer": null, "bias_regularizer": null, "activity_regularizer": null, "kernel_constraint": null, "bias_constraint": null}, "inbound_nodes": [[["p_re_lu_6", 0, 0, {}]]]}, {"name": "p_re_lu_7", "class_name": "PReLU", "config": {"name": "p_re_lu_7", "trainable": true, "dtype": "float32", "alpha_initializer": {"class_name": "Zeros", "config": {}}, "alpha_regularizer": null, "alpha_constraint": null, "shared_axes": [1, 2]}, "inbound_nodes": [[["conv2d_7", 0, 0, {}]]]}, {"name": "conv2d_8", "class_name": "Conv2D", "config": {"name": "conv2d_8", "trainable": true, "dtype": "float32", "filters": 64, "kernel_size": [8, 1], "strides": [2, 1], "padding": "same", "data_format": "channels_last", "dilation_rate": [1, 1], "activation": "linear", "use_bias": true, "kernel_initializer": {"class_name": "VarianceScaling", "config": {"scale": 1.0, "mode": "fan_avg", "distribution": "uniform", "seed": null}}, "bias_initializer": {"class_name": "Zeros", "config": {}}, "kernel_regularizer": null, "bias_regularizer": null, "activity_regularizer": null, "kernel_constraint": null, "bias_constraint": null}, "inbound_nodes": [[["p_re_lu_7", 0, 0, {}]]]}, {"name": "p_re_lu_8", "class_name": "PReLU", "config": {"name": "p_re_lu_8", "trainable": true, "dtype": "float32", "alpha_initializer": {"class_name": "Zeros", "config": {}}, "alpha_regularizer": null, "alpha_constraint": null, "shared_axes": [1, 2]}, "inbound_nodes": [[["conv2d_8", 0, 0, {}]]]}, {"name": "conv2d_9", "class_name": "Conv2D", "config": {"name": "conv2d_9", "trainable": true, "dtype": "float32", "filters": 64, "kernel_size": [8, 1], "strides": [2, 1], "padding": "same", "data_format": "channels_last", "dilation_rate": [1, 1], "activation": "linear", "use_bias": true, "kernel_initializer": {"class_name": "VarianceScaling", "config": {"scale": 1.0, "mode": "fan_avg", "distribution": "uniform", "seed": null}}, "bias_initializer": {"class_name": "Zeros", "config": {}}, "kernel_regularizer": null, "bias_regularizer": null, "activity_regularizer": null, "kernel_constraint": null, "bias_constraint": null}, "inbound_nodes": [[["p_re_lu_8", 0, 0, {}]]]}, {"name": "p_re_lu_9", "class_name": "PReLU", "config": {"name": "p_re_lu_9", "trainable": true, "dtype": "float32", "alpha_initializer": {"class_name": "Zeros", "config": {}}, "alpha_regularizer": null, "alpha_constraint": null, "shared_axes": [1, 2]}, "inbound_nodes": [[["conv2d_9", 0, 0, {}]]]}, {"name": "conv2d_10", "class_name": "Conv2D", "config": {"name": "conv2d_10", "trainable": true, "dtype": "float32", "filters": 64, "kernel_size": [8, 1], "strides": [2, 1], "padding": "same", "data_format": "channels_last", "dilation_rate": [1, 1], "activation": "linear", "use_bias": true, "kernel_initializer": {"class_name": "VarianceScaling", "config": {"scale": 1.0, "mode": "fan_avg", "distribution": "uniform", "seed": null}}, "bias_initializer": {"class_name": "Zeros", "config": {}}, "kernel_regularizer": null, "bias_regularizer": null, "activity_regularizer": null, "kernel_constraint": null, "bias_constraint": null}, "inbound_nodes": [[["p_re_lu_9", 0, 0, {}]]]}, {"name": "p_re_lu_10", "class_name": "PReLU", "config": {"name": "p_re_lu_10", "trainable": true, "dtype": "float32", "alpha_initializer": {"class_name": "Zeros", "config": {}}, "alpha_regularizer": null, "alpha_constraint": null, "shared_axes": [1, 2]}, "inbound_nodes": [[["conv2d_10", 0, 0, {}]]]}, {"name": "conv2d_11", "class_name": "Conv2D", "config": {"name": "conv2d_11", "trainable": true, "dtype": "float32", "filters": 64, "kernel_size": [8, 1], "strides": [2, 1], "padding": "same", "data_format": "channels_last", "dilation_rate": [1, 1], "activation": "linear", "use_bias": true, "kernel_initializer": {"class_name": "VarianceScaling", "config": {"scale": 1.0, "mode": "fan_avg", "distribution": "uniform", "seed": null}}, "bias_initializer": {"class_name": "Zeros", "config": {}}, "kernel_regularizer": null, "bias_regularizer": null, "activity_regularizer": null, "kernel_constraint": null, "bias_constraint": null}, "inbound_nodes": [[["p_re_lu_10", 0, 0, {}]]]}, {"name": "p_re_lu_11", "class_name": "PReLU", "config": {"name": "p_re_lu_11", "trainable": true, "dtype": "float32", "alpha_initializer": {"class_name": "Zeros", "config": {}}, "alpha_regularizer": null, "alpha_constraint": null, "shared_axes": [1, 2]}, "inbound_nodes": [[["conv2d_11", 0, 0, {}]]]}, {"name": "conv2d_12", "class_name": "Conv2D", "config": {"name": "conv2d_12", "trainable": true, "dtype": "float32", "filters": 64, "kernel_size": [8, 1], "strides": [2, 1], "padding": "same", "data_format": "channels_last", "dilation_rate": [1, 1], "activation": "linear", "use_bias": true, "kernel_initializer": {"class_name": "VarianceScaling", "config": {"scale": 1.0, "mode": "fan_avg", "distribution": "uniform", "seed": null}}, "bias_initializer": {"class_name": "Zeros", "config": {}}, "kernel_regularizer": null, "bias_regularizer": null, "activity_regularizer": null, "kernel_constraint": null, "bias_constraint": null}, "inbound_nodes": [[["p_re_lu_11", 0, 0, {}]]]}, {"name": "p_re_lu_12", "class_name": "PReLU", "config": {"name": "p_re_lu_12", "trainable": true, "dtype": "float32", "alpha_initializer": {"class_name": "Zeros", "config": {}}, "alpha_regularizer": null, "alpha_constraint": null, "shared_axes": [1, 2]}, "inbound_nodes": [[["conv2d_12", 0, 0, {}]]]}, {"name": "conv2d_13", "class_name": "Conv2D", "config": {"name": "conv2d_13", "trainable": true, "dtype": "float32", "filters": 64, "kernel_size": [8, 1], "strides": [2, 1], "padding": "same", "data_format": "channels_last", "dilation_rate": [1, 1], "activation": "linear", "use_bias": true, "kernel_initializer": {"class_name": "VarianceScaling", "config": {"scale": 1.0, "mode": "fan_avg", "distribution": "uniform", "seed": null}}, "bias_initializer": {"class_name": "Zeros", "config": {}}, "kernel_regularizer": null, "bias_regularizer": null, "activity_regularizer": null, "kernel_constraint": null, "bias_constraint": null}, "inbound_nodes": [[["p_re_lu_12", 0, 0, {}]]]}, {"name": "p_re_lu_13", "class_name": "PReLU", "config": {"name": "p_re_lu_13", "trainable": true, "dtype": "float32", "alpha_initializer": {"class_name": "Zeros", "config": {}}, "alpha_regularizer": null, "alpha_constraint": null, "shared_axes": [1, 2]}, "inbound_nodes": [[["conv2d_13", 0, 0, {}]]]}, {"name": "conv2d_14", "class_name": "Conv2D", "config": {"name": "conv2d_14", "trainable": true, "dtype": "float32", "filters": 64, "kernel_size": [8, 1], "strides": [2, 1], "padding": "same", "data_format": "channels_last", "dilation_rate": [1, 1], "activation": "linear", "use_bias": true, "kernel_initializer": {"class_name": "VarianceScaling", "config": {"scale": 1.0, "mode": "fan_avg", "distribution": "uniform", "seed": null}}, "bias_initializer": {"class_name": "Zeros", "config": {}}, "kernel_regularizer": null, "bias_regularizer": null, "activity_regularizer": null, "kernel_constraint": null, "bias_constraint": null}, "inbound_nodes": [[["p_re_lu_13", 0, 0, {}]]]}, {"name": "p_re_lu_14", "class_name": "PReLU", "config": {"name": "p_re_lu_14", "trainable": true, "dtype": "float32", "alpha_initializer": {"class_name": "Zeros", "config": {}}, "alpha_regularizer": null, "alpha_constraint": null, "shared_axes": [1, 2]}, "inbound_nodes": [[["conv2d_14", 0, 0, {}]]]}, {"name": "conv2d_transpose_1", "class_name": "Conv2DTranspose", "config": {"name": "conv2d_transpose_1", "trainable": true, "dtype": "float32", "filters": 64, "kernel_size": [8, 1], "strides": [2, 1], "padding": "same", "data_format": "channels_last", "dilation_rate": [1, 1], "activation": "linear", "use_bias": true, "kernel_initializer": {"class_name": "VarianceScaling", "config": {"scale": 1.0, "mode": "fan_avg", "distribution": "uniform", "seed": null}}, "bias_initializer": {"class_name": "Zeros", "config": {}}, "kernel_regularizer": null, "bias_regularizer": null, "activity_regularizer": null, "kernel_constraint": null, "bias_constraint": null, "output_padding": null}, "inbound_nodes": [[["p_re_lu_14", 0, 0, {}]]]}, {"name": "conv2d_transpose_15", "class_name": "Conv2DTranspose", "config": {"name": "conv2d_transpose_15", "trainable": true, "dtype": "float32", "filters": 64, "kernel_size": [8, 1], "strides": [2, 1], "padding": "same", "data_format": "channels_last", "dilation_rate": [1, 1], "activation": "linear", "use_bias": true, "kernel_initializer": {"class_name": "VarianceScaling", "config": {"scale": 1.0, "mode": "fan_avg", "distribution": "uniform", "seed": null}}, "bias_initializer": {"class_name": "Zeros", "config": {}}, "kernel_regularizer": null, "bias_regularizer": null, "activity_regularizer": null, "kernel_constraint": null, "bias_constraint": null, "output_padding": null}, "inbound_nodes": [[["p_re_lu_14", 0, 0, {}]]]}, {"name": "conv2d_transpose_29", "class_name": "Conv2DTranspose", "config": {"name": "conv2d_transpose_29", "trainable": true, "dtype": "float32", "filters": 64, "kernel_size": [8, 1], "strides": [2, 1], "padding": "same", "data_format": "channels_last", "dilation_rate": [1, 1], "activation": "linear", "use_bias": true, "kernel_initializer": {"class_name": "VarianceScaling", "config": {"scale": 1.0, "mode": "fan_avg", "distribution": "uniform", "seed": null}}, "bias_initializer": {"class_name": "Zeros", "config": {}}, "kernel_regularizer": null, "bias_regularizer": null, "activity_regularizer": null, "kernel_constraint": null, "bias_constraint": null, "output_padding": null}, "inbound_nodes": [[["p_re_lu_14", 0, 0, {}]]]}, {"name": "p_re_lu_15", "class_name": "PReLU", "config": {"name": "p_re_lu_15", "trainable": true, "dtype": "float32", "alpha_initializer": {"class_name": "Zeros", "config": {}}, "alpha_regularizer": null, "alpha_constraint": null, "shared_axes": [1, 2]}, "inbound_nodes": [[["conv2d_transpose_1", 0, 0, {}]]]}, {"name": "p_re_lu_28", "class_name": "PReLU", "config": {"name": "p_re_lu_28", "trainable": true, "dtype": "float32", "alpha_initializer": {"class_name": "Zeros", "config": {}}, "alpha_regularizer": null, "alpha_constraint": null, "shared_axes": [1, 2]}, "inbound_nodes": [[["conv2d_transpose_15", 0, 0, {}]]]}, {"name": "p_re_lu_41", "class_name": "PReLU", "config": {"name": "p_re_lu_41", "trainable": true, "dtype": "float32", "alpha_initializer": {"class_name": "Zeros", "config": {}}, "alpha_regularizer": null, "alpha_constraint": null, "shared_axes": [1, 2]}, "inbound_nodes": [[["conv2d_transpose_29", 0, 0, {}]]]}, {"name": "concatenate_1", "class_name": "Concatenate", "config": {"name": "concatenate_1", "trainable": true, "dtype": "float32", "axis": -1}, "inbound_nodes": [[["p_re_lu_15", 0, 0, {}], ["conv2d_13", 0, 0, {}]]]}, {"name": "concatenate_14", "class_name": "Concatenate", "config": {"name": "concatenate_14", "trainable": true, "dtype": "float32", "axis": -1}, "inbound_nodes": [[["p_re_lu_28", 0, 0, {}], ["conv2d_13", 0, 0, {}]]]}, {"name": "concatenate_27", "class_name": "Concatenate", "config": {"name": "concatenate_27", "trainable": true, "dtype": "float32", "axis": -1}, "inbound_nodes": [[["p_re_lu_41", 0, 0, {}], ["conv2d_13", 0, 0, {}]]]}, {"name": "conv2d_transpose_2", "class_name": "Conv2DTranspose", "config": {"name": "conv2d_transpose_2", "trainable": true, "dtype": "float32", "filters": 64, "kernel_size": [8, 1], "strides": [2, 1], "padding": "same", "data_format": "channels_last", "dilation_rate": [1, 1], "activation": "linear", "use_bias": true, "kernel_initializer": {"class_name": "VarianceScaling", "config": {"scale": 1.0, "mode": "fan_avg", "distribution": "uniform", "seed": null}}, "bias_initializer": {"class_name": "Zeros", "config": {}}, "kernel_regularizer": null, "bias_regularizer": null, "activity_regularizer": null, "kernel_constraint": null, "bias_constraint": null, "output_padding": null}, "inbound_nodes": [[["concatenate_1", 0, 0, {}]]]}, {"name": "conv2d_transpose_16", "class_name": "Conv2DTranspose", "config": {"name": "conv2d_transpose_16", "trainable": true, "dtype": "float32", "filters": 64, "kernel_size": [8, 1], "strides": [2, 1], "padding": "same", "data_format": "channels_last", "dilation_rate": [1, 1], "activation": "linear", "use_bias": true, "kernel_initializer": {"class_name": "VarianceScaling", "config": {"scale": 1.0, "mode": "fan_avg", "distribution": "uniform", "seed": null}}, "bias_initializer": {"class_name": "Zeros", "config": {}}, "kernel_regularizer": null, "bias_regularizer": null, "activity_regularizer": null, "kernel_constraint": null, "bias_constraint": null, "output_padding": null}, "inbound_nodes": [[["concatenate_14", 0, 0, {}]]]}, {"name": "conv2d_transpose_30", "class_name": "Conv2DTranspose", "config": {"name": "conv2d_transpose_30", "trainable": true, "dtype": "float32", "filters": 64, "kernel_size": [8, 1], "strides": [2, 1], "padding": "same", "data_format": "channels_last", "dilation_rate": [1, 1], "activation": "linear", "use_bias": true, "kernel_initializer": {"class_name": "VarianceScaling", "config": {"scale": 1.0, "mode": "fan_avg", "distribution": "uniform", "seed": null}}, "bias_initializer": {"class_name": "Zeros", "config": {}}, "kernel_regularizer": null, "bias_regularizer": null, "activity_regularizer": null, "kernel_constraint": null, "bias_constraint": null, "output_padding": null}, "inbound_nodes": [[["concatenate_27", 0, 0, {}]]]}, {"name": "p_re_lu_16", "class_name": "PReLU", "config": {"name": "p_re_lu_16", "trainable": true, "dtype": "float32", "alpha_initializer": {"class_name": "Zeros", "config": {}}, "alpha_regularizer": null, "alpha_constraint": null, "shared_axes": [1, 2]}, "inbound_nodes": [[["conv2d_transpose_2", 0, 0, {}]]]}, {"name": "p_re_lu_29", "class_name": "PReLU", "config": {"name": "p_re_lu_29", "trainable": true, "dtype": "float32", "alpha_initializer": {"class_name": "Zeros", "config": {}}, "alpha_regularizer": null, "alpha_constraint": null, "shared_axes": [1, 2]}, "inbound_nodes": [[["conv2d_transpose_16", 0, 0, {}]]]}, {"name": "p_re_lu_42", "class_name": "PReLU", "config": {"name": "p_re_lu_42", "trainable": true, "dtype": "float32", "alpha_initializer": {"class_name": "Zeros", "config": {}}, "alpha_regularizer": null, "alpha_constraint": null, "shared_axes": [1, 2]}, "inbound_nodes": [[["conv2d_transpose_30", 0, 0, {}]]]}, {"name": "concatenate_2", "class_name": "Concatenate", "config": {"name": "concatenate_2", "trainable": true, "dtype": "float32", "axis": -1}, "inbound_nodes": [[["p_re_lu_16", 0, 0, {}], ["conv2d_12", 0, 0, {}]]]}, {"name": "concatenate_15", "class_name": "Concatenate", "config": {"name": "concatenate_15", "trainable": true, "dtype": "float32", "axis": -1}, "inbound_nodes": [[["p_re_lu_29", 0, 0, {}], ["conv2d_12", 0, 0, {}]]]}, {"name": "concatenate_28", "class_name": "Concatenate", "config": {"name": "concatenate_28", "trainable": true, "dtype": "float32", "axis": -1}, "inbound_nodes": [[["p_re_lu_42", 0, 0, {}], ["conv2d_12", 0, 0, {}]]]}, {"name": "conv2d_transpose_3", "class_name": "Conv2DTranspose", "config": {"name": "conv2d_transpose_3", "trainable": true, "dtype": "float32", "filters": 64, "kernel_size": [8, 1], "strides": [2, 1], "padding": "same", "data_format": "channels_last", "dilation_rate": [1, 1], "activation": "linear", "use_bias": true, "kernel_initializer": {"class_name": "VarianceScaling", "config": {"scale": 1.0, "mode": "fan_avg", "distribution": "uniform", "seed": null}}, "bias_initializer": {"class_name": "Zeros", "config": {}}, "kernel_regularizer": null, "bias_regularizer": null, "activity_regularizer": null, "kernel_constraint": null, "bias_constraint": null, "output_padding": null}, "inbound_nodes": [[["concatenate_2", 0, 0, {}]]]}, {"name": "conv2d_transpose_17", "class_name": "Conv2DTranspose", "config": {"name": "conv2d_transpose_17", "trainable": true, "dtype": "float32", "filters": 64, "kernel_size": [8, 1], "strides": [2, 1], "padding": "same", "data_format": "channels_last", "dilation_rate": [1, 1], "activation": "linear", "use_bias": true, "kernel_initializer": {"class_name": "VarianceScaling", "config": {"scale": 1.0, "mode": "fan_avg", "distribution": "uniform", "seed": null}}, "bias_initializer": {"class_name": "Zeros", "config": {}}, "kernel_regularizer": null, "bias_regularizer": null, "activity_regularizer": null, "kernel_constraint": null, "bias_constraint": null, "output_padding": null}, "inbound_nodes": [[["concatenate_15", 0, 0, {}]]]}, {"name": "conv2d_transpose_31", "class_name": "Conv2DTranspose", "config": {"name": "conv2d_transpose_31", "trainable": true, "dtype": "float32", "filters": 64, "kernel_size": [8, 1], "strides": [2, 1], "padding": "same", "data_format": "channels_last", "dilation_rate": [1, 1], "activation": "linear", "use_bias": true, "kernel_initializer": {"class_name": "VarianceScaling", "config": {"scale": 1.0, "mode": "fan_avg", "distribution": "uniform", "seed": null}}, "bias_initializer": {"class_name": "Zeros", "config": {}}, "kernel_regularizer": null, "bias_regularizer": null, "activity_regularizer": null, "kernel_constraint": null, "bias_constraint": null, "output_padding": null}, "inbound_nodes": [[["concatenate_28", 0, 0, {}]]]}, {"name": "p_re_lu_17", "class_name": "PReLU", "config": {"name": "p_re_lu_17", "trainable": true, "dtype": "float32", "alpha_initializer": {"class_name": "Zeros", "config": {}}, "alpha_regularizer": null, "alpha_constraint": null, "shared_axes": [1, 2]}, "inbound_nodes": [[["conv2d_transpose_3", 0, 0, {}]]]}, {"name": "p_re_lu_30", "class_name": "PReLU", "config": {"name": "p_re_lu_30", "trainable": true, "dtype": "float32", "alpha_initializer": {"class_name": "Zeros", "config": {}}, "alpha_regularizer": null, "alpha_constraint": null, "shared_axes": [1, 2]}, "inbound_nodes": [[["conv2d_transpose_17", 0, 0, {}]]]}, {"name": "p_re_lu_43", "class_name": "PReLU", "config": {"name": "p_re_lu_43", "trainable": true, "dtype": "float32", "alpha_initializer": {"class_name": "Zeros", "config": {}}, "alpha_regularizer": null, "alpha_constraint": null, "shared_axes": [1, 2]}, "inbound_nodes": [[["conv2d_transpose_31", 0, 0, {}]]]}, {"name": "concatenate_3", "class_name": "Concatenate", "config": {"name": "concatenate_3", "trainable": true, "dtype": "float32", "axis": -1}, "inbound_nodes": [[["p_re_lu_17", 0, 0, {}], ["conv2d_11", 0, 0, {}]]]}, {"name": "concatenate_16", "class_name": "Concatenate", "config": {"name": "concatenate_16", "trainable": true, "dtype": "float32", "axis": -1}, "inbound_nodes": [[["p_re_lu_30", 0, 0, {}], ["conv2d_11", 0, 0, {}]]]}, {"name": "concatenate_29", "class_name": "Concatenate", "config": {"name": "concatenate_29", "trainable": true, "dtype": "float32", "axis": -1}, "inbound_nodes": [[["p_re_lu_43", 0, 0, {}], ["conv2d_11", 0, 0, {}]]]}, {"name": "conv2d_transpose_4", "class_name": "Conv2DTranspose", "config": {"name": "conv2d_transpose_4", "trainable": true, "dtype": "float32", "filters": 64, "kernel_size": [8, 1], "strides": [2, 1], "padding": "same", "data_format": "channels_last", "dilation_rate": [1, 1], "activation": "linear", "use_bias": true, "kernel_initializer": {"class_name": "VarianceScaling", "config": {"scale": 1.0, "mode": "fan_avg", "distribution": "uniform", "seed": null}}, "bias_initializer": {"class_name": "Zeros", "config": {}}, "kernel_regularizer": null, "bias_regularizer": null, "activity_regularizer": null, "kernel_constraint": null, "bias_constraint": null, "output_padding": null}, "inbound_nodes": [[["concatenate_3", 0, 0, {}]]]}, {"name": "conv2d_transpose_18", "class_name": "Conv2DTranspose", "config": {"name": "conv2d_transpose_18", "trainable": true, "dtype": "float32", "filters": 64, "kernel_size": [8, 1], "strides": [2, 1], "padding": "same", "data_format": "channels_last", "dilation_rate": [1, 1], "activation": "linear", "use_bias": true, "kernel_initializer": {"class_name": "VarianceScaling", "config": {"scale": 1.0, "mode": "fan_avg", "distribution": "uniform", "seed": null}}, "bias_initializer": {"class_name": "Zeros", "config": {}}, "kernel_regularizer": null, "bias_regularizer": null, "activity_regularizer": null, "kernel_constraint": null, "bias_constraint": null, "output_padding": null}, "inbound_nodes": [[["concatenate_16", 0, 0, {}]]]}, {"name": "conv2d_transpose_32", "class_name": "Conv2DTranspose", "config": {"name": "conv2d_transpose_32", "trainable": true, "dtype": "float32", "filters": 64, "kernel_size": [8, 1], "strides": [2, 1], "padding": "same", "data_format": "channels_last", "dilation_rate": [1, 1], "activation": "linear", "use_bias": true, "kernel_initializer": {"class_name": "VarianceScaling", "config": {"scale": 1.0, "mode": "fan_avg", "distribution": "uniform", "seed": null}}, "bias_initializer": {"class_name": "Zeros", "config": {}}, "kernel_regularizer": null, "bias_regularizer": null, "activity_regularizer": null, "kernel_constraint": null, "bias_constraint": null, "output_padding": null}, "inbound_nodes": [[["concatenate_29", 0, 0, {}]]]}, {"name": "p_re_lu_18", "class_name": "PReLU", "config": {"name": "p_re_lu_18", "trainable": true, "dtype": "float32", "alpha_initializer": {"class_name": "Zeros", "config": {}}, "alpha_regularizer": null, "alpha_constraint": null, "shared_axes": [1, 2]}, "inbound_nodes": [[["conv2d_transpose_4", 0, 0, {}]]]}, {"name": "p_re_lu_31", "class_name": "PReLU", "config": {"name": "p_re_lu_31", "trainable": true, "dtype": "float32", "alpha_initializer": {"class_name": "Zeros", "config": {}}, "alpha_regularizer": null, "alpha_constraint": null, "shared_axes": [1, 2]}, "inbound_nodes": [[["conv2d_transpose_18", 0, 0, {}]]]}, {"name": "p_re_lu_44", "class_name": "PReLU", "config": {"name": "p_re_lu_44", "trainable": true, "dtype": "float32", "alpha_initializer": {"class_name": "Zeros", "config": {}}, "alpha_regularizer": null, "alpha_constraint": null, "shared_axes": [1, 2]}, "inbound_nodes": [[["conv2d_transpose_32", 0, 0, {}]]]}, {"name": "concatenate_4", "class_name": "Concatenate", "config": {"name": "concatenate_4", "trainable": true, "dtype": "float32", "axis": -1}, "inbound_nodes": [[["p_re_lu_18", 0, 0, {}], ["conv2d_10", 0, 0, {}]]]}, {"name": "concatenate_17", "class_name": "Concatenate", "config": {"name": "concatenate_17", "trainable": true, "dtype": "float32", "axis": -1}, "inbound_nodes": [[["p_re_lu_31", 0, 0, {}], ["conv2d_10", 0, 0, {}]]]}, {"name": "concatenate_30", "class_name": "Concatenate", "config": {"name": "concatenate_30", "trainable": true, "dtype": "float32", "axis": -1}, "inbound_nodes": [[["p_re_lu_44", 0, 0, {}], ["conv2d_10", 0, 0, {}]]]}, {"name": "conv2d_transpose_5", "class_name": "Conv2DTranspose", "config": {"name": "conv2d_transpose_5", "trainable": true, "dtype": "float32", "filters": 64, "kernel_size": [8, 1], "strides": [2, 1], "padding": "same", "data_format": "channels_last", "dilation_rate": [1, 1], "activation": "linear", "use_bias": true, "kernel_initializer": {"class_name": "VarianceScaling", "config": {"scale": 1.0, "mode": "fan_avg", "distribution": "uniform", "seed": null}}, "bias_initializer": {"class_name": "Zeros", "config": {}}, "kernel_regularizer": null, "bias_regularizer": null, "activity_regularizer": null, "kernel_constraint": null, "bias_constraint": null, "output_padding": null}, "inbound_nodes": [[["concatenate_4", 0, 0, {}]]]}, {"name": "conv2d_transpose_19", "class_name": "Conv2DTranspose", "config": {"name": "conv2d_transpose_19", "trainable": true, "dtype": "float32", "filters": 64, "kernel_size": [8, 1], "strides": [2, 1], "padding": "same", "data_format": "channels_last", "dilation_rate": [1, 1], "activation": "linear", "use_bias": true, "kernel_initializer": {"class_name": "VarianceScaling", "config": {"scale": 1.0, "mode": "fan_avg", "distribution": "uniform", "seed": null}}, "bias_initializer": {"class_name": "Zeros", "config": {}}, "kernel_regularizer": null, "bias_regularizer": null, "activity_regularizer": null, "kernel_constraint": null, "bias_constraint": null, "output_padding": null}, "inbound_nodes": [[["concatenate_17", 0, 0, {}]]]}, {"name": "conv2d_transpose_33", "class_name": "Conv2DTranspose", "config": {"name": "conv2d_transpose_33", "trainable": true, "dtype": "float32", "filters": 64, "kernel_size": [8, 1], "strides": [2, 1], "padding": "same", "data_format": "channels_last", "dilation_rate": [1, 1], "activation": "linear", "use_bias": true, "kernel_initializer": {"class_name": "VarianceScaling", "config": {"scale": 1.0, "mode": "fan_avg", "distribution": "uniform", "seed": null}}, "bias_initializer": {"class_name": "Zeros", "config": {}}, "kernel_regularizer": null, "bias_regularizer": null, "activity_regularizer": null, "kernel_constraint": null, "bias_constraint": null, "output_padding": null}, "inbound_nodes": [[["concatenate_30", 0, 0, {}]]]}, {"name": "p_re_lu_19", "class_name": "PReLU", "config": {"name": "p_re_lu_19", "trainable": true, "dtype": "float32", "alpha_initializer": {"class_name": "Zeros", "config": {}}, "alpha_regularizer": null, "alpha_constraint": null, "shared_axes": [1, 2]}, "inbound_nodes": [[["conv2d_transpose_5", 0, 0, {}]]]}, {"name": "p_re_lu_32", "class_name": "PReLU", "config": {"name": "p_re_lu_32", "trainable": true, "dtype": "float32", "alpha_initializer": {"class_name": "Zeros", "config": {}}, "alpha_regularizer": null, "alpha_constraint": null, "shared_axes": [1, 2]}, "inbound_nodes": [[["conv2d_transpose_19", 0, 0, {}]]]}, {"name": "p_re_lu_45", "class_name": "PReLU", "config": {"name": "p_re_lu_45", "trainable": true, "dtype": "float32", "alpha_initializer": {"class_name": "Zeros", "config": {}}, "alpha_regularizer": null, "alpha_constraint": null, "shared_axes": [1, 2]}, "inbound_nodes": [[["conv2d_transpose_33", 0, 0, {}]]]}, {"name": "concatenate_5", "class_name": "Concatenate", "config": {"name": "concatenate_5", "trainable": true, "dtype": "float32", "axis": -1}, "inbound_nodes": [[["p_re_lu_19", 0, 0, {}], ["conv2d_9", 0, 0, {}]]]}, {"name": "concatenate_18", "class_name": "Concatenate", "config": {"name": "concatenate_18", "trainable": true, "dtype": "float32", "axis": -1}, "inbound_nodes": [[["p_re_lu_32", 0, 0, {}], ["conv2d_9", 0, 0, {}]]]}, {"name": "concatenate_31", "class_name": "Concatenate", "config": {"name": "concatenate_31", "trainable": true, "dtype": "float32", "axis": -1}, "inbound_nodes": [[["p_re_lu_45", 0, 0, {}], ["conv2d_9", 0, 0, {}]]]}, {"name": "conv2d_transpose_6", "class_name": "Conv2DTranspose", "config": {"name": "conv2d_transpose_6", "trainable": true, "dtype": "float32", "filters": 64, "kernel_size": [8, 1], "strides": [2, 1], "padding": "same", "data_format": "channels_last", "dilation_rate": [1, 1], "activation": "linear", "use_bias": true, "kernel_initializer": {"class_name": "VarianceScaling", "config": {"scale": 1.0, "mode": "fan_avg", "distribution": "uniform", "seed": null}}, "bias_initializer": {"class_name": "Zeros", "config": {}}, "kernel_regularizer": null, "bias_regularizer": null, "activity_regularizer": null, "kernel_constraint": null, "bias_constraint": null, "output_padding": null}, "inbound_nodes": [[["concatenate_5", 0, 0, {}]]]}, {"name": "conv2d_transpose_20", "class_name": "Conv2DTranspose", "config": {"name": "conv2d_transpose_20", "trainable": true, "dtype": "float32", "filters": 64, "kernel_size": [8, 1], "strides": [2, 1], "padding": "same", "data_format": "channels_last", "dilation_rate": [1, 1], "activation": "linear", "use_bias": true, "kernel_initializer": {"class_name": "VarianceScaling", "config": {"scale": 1.0, "mode": "fan_avg", "distribution": "uniform", "seed": null}}, "bias_initializer": {"class_name": "Zeros", "config": {}}, "kernel_regularizer": null, "bias_regularizer": null, "activity_regularizer": null, "kernel_constraint": null, "bias_constraint": null, "output_padding": null}, "inbound_nodes": [[["concatenate_18", 0, 0, {}]]]}, {"name": "conv2d_transpose_34", "class_name": "Conv2DTranspose", "config": {"name": "conv2d_transpose_34", "trainable": true, "dtype": "float32", "filters": 64, "kernel_size": [8, 1], "strides": [2, 1], "padding": "same", "data_format": "channels_last", "dilation_rate": [1, 1], "activation": "linear", "use_bias": true, "kernel_initializer": {"class_name": "VarianceScaling", "config": {"scale": 1.0, "mode": "fan_avg", "distribution": "uniform", "seed": null}}, "bias_initializer": {"class_name": "Zeros", "config": {}}, "kernel_regularizer": null, "bias_regularizer": null, "activity_regularizer": null, "kernel_constraint": null, "bias_constraint": null, "output_padding": null}, "inbound_nodes": [[["concatenate_31", 0, 0, {}]]]}, {"name": "p_re_lu_20", "class_name": "PReLU", "config": {"name": "p_re_lu_20", "trainable": true, "dtype": "float32", "alpha_initializer": {"class_name": "Zeros", "config": {}}, "alpha_regularizer": null, "alpha_constraint": null, "shared_axes": [1, 2]}, "inbound_nodes": [[["conv2d_transpose_6", 0, 0, {}]]]}, {"name": "p_re_lu_33", "class_name": "PReLU", "config": {"name": "p_re_lu_33", "trainable": true, "dtype": "float32", "alpha_initializer": {"class_name": "Zeros", "config": {}}, "alpha_regularizer": null, "alpha_constraint": null, "shared_axes": [1, 2]}, "inbound_nodes": [[["conv2d_transpose_20", 0, 0, {}]]]}, {"name": "p_re_lu_46", "class_name": "PReLU", "config": {"name": "p_re_lu_46", "trainable": true, "dtype": "float32", "alpha_initializer": {"class_name": "Zeros", "config": {}}, "alpha_regularizer": null, "alpha_constraint": null, "shared_axes": [1, 2]}, "inbound_nodes": [[["conv2d_transpose_34", 0, 0, {}]]]}, {"name": "concatenate_6", "class_name": "Concatenate", "config": {"name": "concatenate_6", "trainable": true, "dtype": "float32", "axis": -1}, "inbound_nodes": [[["p_re_lu_20", 0, 0, {}], ["conv2d_8", 0, 0, {}]]]}, {"name": "concatenate_19", "class_name": "Concatenate", "config": {"name": "concatenate_19", "trainable": true, "dtype": "float32", "axis": -1}, "inbound_nodes": [[["p_re_lu_33", 0, 0, {}], ["conv2d_8", 0, 0, {}]]]}, {"name": "concatenate_32", "class_name": "Concatenate", "config": {"name": "concatenate_32", "trainable": true, "dtype": "float32", "axis": -1}, "inbound_nodes": [[["p_re_lu_46", 0, 0, {}], ["conv2d_8", 0, 0, {}]]]}, {"name": "conv2d_transpose_7", "class_name": "Conv2DTranspose", "config": {"name": "conv2d_transpose_7", "trainable": true, "dtype": "float32", "filters": 64, "kernel_size": [8, 1], "strides": [2, 1], "padding": "same", "data_format": "channels_last", "dilation_rate": [1, 1], "activation": "linear", "use_bias": true, "kernel_initializer": {"class_name": "VarianceScaling", "config": {"scale": 1.0, "mode": "fan_avg", "distribution": "uniform", "seed": null}}, "bias_initializer": {"class_name": "Zeros", "config": {}}, "kernel_regularizer": null, "bias_regularizer": null, "activity_regularizer": null, "kernel_constraint": null, "bias_constraint": null, "output_padding": null}, "inbound_nodes": [[["concatenate_6", 0, 0, {}]]]}, {"name": "conv2d_transpose_21", "class_name": "Conv2DTranspose", "config": {"name": "conv2d_transpose_21", "trainable": true, "dtype": "float32", "filters": 64, "kernel_size": [8, 1], "strides": [2, 1], "padding": "same", "data_format": "channels_last", "dilation_rate": [1, 1], "activation": "linear", "use_bias": true, "kernel_initializer": {"class_name": "VarianceScaling", "config": {"scale": 1.0, "mode": "fan_avg", "distribution": "uniform", "seed": null}}, "bias_initializer": {"class_name": "Zeros", "config": {}}, "kernel_regularizer": null, "bias_regularizer": null, "activity_regularizer": null, "kernel_constraint": null, "bias_constraint": null, "output_padding": null}, "inbound_nodes": [[["concatenate_19", 0, 0, {}]]]}, {"name": "conv2d_transpose_35", "class_name": "Conv2DTranspose", "config": {"name": "conv2d_transpose_35", "trainable": true, "dtype": "float32", "filters": 64, "kernel_size": [8, 1], "strides": [2, 1], "padding": "same", "data_format": "channels_last", "dilation_rate": [1, 1], "activation": "linear", "use_bias": true, "kernel_initializer": {"class_name": "VarianceScaling", "config": {"scale": 1.0, "mode": "fan_avg", "distribution": "uniform", "seed": null}}, "bias_initializer": {"class_name": "Zeros", "config": {}}, "kernel_regularizer": null, "bias_regularizer": null, "activity_regularizer": null, "kernel_constraint": null, "bias_constraint": null, "output_padding": null}, "inbound_nodes": [[["concatenate_32", 0, 0, {}]]]}, {"name": "p_re_lu_21", "class_name": "PReLU", "config": {"name": "p_re_lu_21", "trainable": true, "dtype": "float32", "alpha_initializer": {"class_name": "Zeros", "config": {}}, "alpha_regularizer": null, "alpha_constraint": null, "shared_axes": [1, 2]}, "inbound_nodes": [[["conv2d_transpose_7", 0, 0, {}]]]}, {"name": "p_re_lu_34", "class_name": "PReLU", "config": {"name": "p_re_lu_34", "trainable": true, "dtype": "float32", "alpha_initializer": {"class_name": "Zeros", "config": {}}, "alpha_regularizer": null, "alpha_constraint": null, "shared_axes": [1, 2]}, "inbound_nodes": [[["conv2d_transpose_21", 0, 0, {}]]]}, {"name": "p_re_lu_47", "class_name": "PReLU", "config": {"name": "p_re_lu_47", "trainable": true, "dtype": "float32", "alpha_initializer": {"class_name": "Zeros", "config": {}}, "alpha_regularizer": null, "alpha_constraint": null, "shared_axes": [1, 2]}, "inbound_nodes": [[["conv2d_transpose_35", 0, 0, {}]]]}, {"name": "concatenate_7", "class_name": "Concatenate", "config": {"name": "concatenate_7", "trainable": true, "dtype": "float32", "axis": -1}, "inbound_nodes": [[["p_re_lu_21", 0, 0, {}], ["conv2d_7", 0, 0, {}]]]}, {"name": "concatenate_20", "class_name": "Concatenate", "config": {"name": "concatenate_20", "trainable": true, "dtype": "float32", "axis": -1}, "inbound_nodes": [[["p_re_lu_34", 0, 0, {}], ["conv2d_7", 0, 0, {}]]]}, {"name": "concatenate_33", "class_name": "Concatenate", "config": {"name": "concatenate_33", "trainable": true, "dtype": "float32", "axis": -1}, "inbound_nodes": [[["p_re_lu_47", 0, 0, {}], ["conv2d_7", 0, 0, {}]]]}, {"name": "conv2d_transpose_8", "class_name": "Conv2DTranspose", "config": {"name": "conv2d_transpose_8", "trainable": true, "dtype": "float32", "filters": 64, "kernel_size": [8, 1], "strides": [2, 1], "padding": "same", "data_format": "channels_last", "dilation_rate": [1, 1], "activation": "linear", "use_bias": true, "kernel_initializer": {"class_name": "VarianceScaling", "config": {"scale": 1.0, "mode": "fan_avg", "distribution": "uniform", "seed": null}}, "bias_initializer": {"class_name": "Zeros", "config": {}}, "kernel_regularizer": null, "bias_regularizer": null, "activity_regularizer": null, "kernel_constraint": null, "bias_constraint": null, "output_padding": null}, "inbound_nodes": [[["concatenate_7", 0, 0, {}]]]}, {"name": "conv2d_transpose_22", "class_name": "Conv2DTranspose", "config": {"name": "conv2d_transpose_22", "trainable": true, "dtype": "float32", "filters": 64, "kernel_size": [8, 1], "strides": [2, 1], "padding": "same", "data_format": "channels_last", "dilation_rate": [1, 1], "activation": "linear", "use_bias": true, "kernel_initializer": {"class_name": "VarianceScaling", "config": {"scale": 1.0, "mode": "fan_avg", "distribution": "uniform", "seed": null}}, "bias_initializer": {"class_name": "Zeros", "config": {}}, "kernel_regularizer": null, "bias_regularizer": null, "activity_regularizer": null, "kernel_constraint": null, "bias_constraint": null, "output_padding": null}, "inbound_nodes": [[["concatenate_20", 0, 0, {}]]]}, {"name": "conv2d_transpose_36", "class_name": "Conv2DTranspose", "config": {"name": "conv2d_transpose_36", "trainable": true, "dtype": "float32", "filters": 64, "kernel_size": [8, 1], "strides": [2, 1], "padding": "same", "data_format": "channels_last", "dilation_rate": [1, 1], "activation": "linear", "use_bias": true, "kernel_initializer": {"class_name": "VarianceScaling", "config": {"scale": 1.0, "mode": "fan_avg", "distribution": "uniform", "seed": null}}, "bias_initializer": {"class_name": "Zeros", "config": {}}, "kernel_regularizer": null, "bias_regularizer": null, "activity_regularizer": null, "kernel_constraint": null, "bias_constraint": null, "output_padding": null}, "inbound_nodes": [[["concatenate_33", 0, 0, {}]]]}, {"name": "p_re_lu_22", "class_name": "PReLU", "config": {"name": "p_re_lu_22", "trainable": true, "dtype": "float32", "alpha_initializer": {"class_name": "Zeros", "config": {}}, "alpha_regularizer": null, "alpha_constraint": null, "shared_axes": [1, 2]}, "inbound_nodes": [[["conv2d_transpose_8", 0, 0, {}]]]}, {"name": "p_re_lu_35", "class_name": "PReLU", "config": {"name": "p_re_lu_35", "trainable": true, "dtype": "float32", "alpha_initializer": {"class_name": "Zeros", "config": {}}, "alpha_regularizer": null, "alpha_constraint": null, "shared_axes": [1, 2]}, "inbound_nodes": [[["conv2d_transpose_22", 0, 0, {}]]]}, {"name": "p_re_lu_48", "class_name": "PReLU", "config": {"name": "p_re_lu_48", "trainable": true, "dtype": "float32", "alpha_initializer": {"class_name": "Zeros", "config": {}}, "alpha_regularizer": null, "alpha_constraint": null, "shared_axes": [1, 2]}, "inbound_nodes": [[["conv2d_transpose_36", 0, 0, {}]]]}, {"name": "concatenate_8", "class_name": "Concatenate", "config": {"name": "concatenate_8", "trainable": true, "dtype": "float32", "axis": -1}, "inbound_nodes": [[["p_re_lu_22", 0, 0, {}], ["conv2d_6", 0, 0, {}]]]}, {"name": "concatenate_21", "class_name": "Concatenate", "config": {"name": "concatenate_21", "trainable": true, "dtype": "float32", "axis": -1}, "inbound_nodes": [[["p_re_lu_35", 0, 0, {}], ["conv2d_6", 0, 0, {}]]]}, {"name": "concatenate_34", "class_name": "Concatenate", "config": {"name": "concatenate_34", "trainable": true, "dtype": "float32", "axis": -1}, "inbound_nodes": [[["p_re_lu_48", 0, 0, {}], ["conv2d_6", 0, 0, {}]]]}, {"name": "conv2d_transpose_9", "class_name": "Conv2DTranspose", "config": {"name": "conv2d_transpose_9", "trainable": true, "dtype": "float32", "filters": 64, "kernel_size": [8, 1], "strides": [2, 1], "padding": "same", "data_format": "channels_last", "dilation_rate": [1, 1], "activation": "linear", "use_bias": true, "kernel_initializer": {"class_name": "VarianceScaling", "config": {"scale": 1.0, "mode": "fan_avg", "distribution": "uniform", "seed": null}}, "bias_initializer": {"class_name": "Zeros", "config": {}}, "kernel_regularizer": null, "bias_regularizer": null, "activity_regularizer": null, "kernel_constraint": null, "bias_constraint": null, "output_padding": null}, "inbound_nodes": [[["concatenate_8", 0, 0, {}]]]}, {"name": "conv2d_transpose_23", "class_name": "Conv2DTranspose", "config": {"name": "conv2d_transpose_23", "trainable": true, "dtype": "float32", "filters": 64, "kernel_size": [8, 1], "strides": [2, 1], "padding": "same", "data_format": "channels_last", "dilation_rate": [1, 1], "activation": "linear", "use_bias": true, "kernel_initializer": {"class_name": "VarianceScaling", "config": {"scale": 1.0, "mode": "fan_avg", "distribution": "uniform", "seed": null}}, "bias_initializer": {"class_name": "Zeros", "config": {}}, "kernel_regularizer": null, "bias_regularizer": null, "activity_regularizer": null, "kernel_constraint": null, "bias_constraint": null, "output_padding": null}, "inbound_nodes": [[["concatenate_21", 0, 0, {}]]]}, {"name": "conv2d_transpose_37", "class_name": "Conv2DTranspose", "config": {"name": "conv2d_transpose_37", "trainable": true, "dtype": "float32", "filters": 64, "kernel_size": [8, 1], "strides": [2, 1], "padding": "same", "data_format": "channels_last", "dilation_rate": [1, 1], "activation": "linear", "use_bias": true, "kernel_initializer": {"class_name": "VarianceScaling", "config": {"scale": 1.0, "mode": "fan_avg", "distribution": "uniform", "seed": null}}, "bias_initializer": {"class_name": "Zeros", "config": {}}, "kernel_regularizer": null, "bias_regularizer": null, "activity_regularizer": null, "kernel_constraint": null, "bias_constraint": null, "output_padding": null}, "inbound_nodes": [[["concatenate_34", 0, 0, {}]]]}, {"name": "p_re_lu_23", "class_name": "PReLU", "config": {"name": "p_re_lu_23", "trainable": true, "dtype": "float32", "alpha_initializer": {"class_name": "Zeros", "config": {}}, "alpha_regularizer": null, "alpha_constraint": null, "shared_axes": [1, 2]}, "inbound_nodes": [[["conv2d_transpose_9", 0, 0, {}]]]}, {"name": "p_re_lu_36", "class_name": "PReLU", "config": {"name": "p_re_lu_36", "trainable": true, "dtype": "float32", "alpha_initializer": {"class_name": "Zeros", "config": {}}, "alpha_regularizer": null, "alpha_constraint": null, "shared_axes": [1, 2]}, "inbound_nodes": [[["conv2d_transpose_23", 0, 0, {}]]]}, {"name": "p_re_lu_49", "class_name": "PReLU", "config": {"name": "p_re_lu_49", "trainable": true, "dtype": "float32", "alpha_initializer": {"class_name": "Zeros", "config": {}}, "alpha_regularizer": null, "alpha_constraint": null, "shared_axes": [1, 2]}, "inbound_nodes": [[["conv2d_transpose_37", 0, 0, {}]]]}, {"name": "concatenate_9", "class_name": "Concatenate", "config": {"name": "concatenate_9", "trainable": true, "dtype": "float32", "axis": -1}, "inbound_nodes": [[["p_re_lu_23", 0, 0, {}], ["conv2d_5", 0, 0, {}]]]}, {"name": "concatenate_22", "class_name": "Concatenate", "config": {"name": "concatenate_22", "trainable": true, "dtype": "float32", "axis": -1}, "inbound_nodes": [[["p_re_lu_36", 0, 0, {}], ["conv2d_5", 0, 0, {}]]]}, {"name": "concatenate_35", "class_name": "Concatenate", "config": {"name": "concatenate_35", "trainable": true, "dtype": "float32", "axis": -1}, "inbound_nodes": [[["p_re_lu_49", 0, 0, {}], ["conv2d_5", 0, 0, {}]]]}, {"name": "conv2d_transpose_10", "class_name": "Conv2DTranspose", "config": {"name": "conv2d_transpose_10", "trainable": true, "dtype": "float32", "filters": 64, "kernel_size": [8, 1], "strides": [2, 1], "padding": "same", "data_format": "channels_last", "dilation_rate": [1, 1], "activation": "linear", "use_bias": true, "kernel_initializer": {"class_name": "VarianceScaling", "config": {"scale": 1.0, "mode": "fan_avg", "distribution": "uniform", "seed": null}}, "bias_initializer": {"class_name": "Zeros", "config": {}}, "kernel_regularizer": null, "bias_regularizer": null, "activity_regularizer": null, "kernel_constraint": null, "bias_constraint": null, "output_padding": null}, "inbound_nodes": [[["concatenate_9", 0, 0, {}]]]}, {"name": "conv2d_transpose_24", "class_name": "Conv2DTranspose", "config": {"name": "conv2d_transpose_24", "trainable": true, "dtype": "float32", "filters": 64, "kernel_size": [8, 1], "strides": [2, 1], "padding": "same", "data_format": "channels_last", "dilation_rate": [1, 1], "activation": "linear", "use_bias": true, "kernel_initializer": {"class_name": "VarianceScaling", "config": {"scale": 1.0, "mode": "fan_avg", "distribution": "uniform", "seed": null}}, "bias_initializer": {"class_name": "Zeros", "config": {}}, "kernel_regularizer": null, "bias_regularizer": null, "activity_regularizer": null, "kernel_constraint": null, "bias_constraint": null, "output_padding": null}, "inbound_nodes": [[["concatenate_22", 0, 0, {}]]]}, {"name": "conv2d_transpose_38", "class_name": "Conv2DTranspose", "config": {"name": "conv2d_transpose_38", "trainable": true, "dtype": "float32", "filters": 64, "kernel_size": [8, 1], "strides": [2, 1], "padding": "same", "data_format": "channels_last", "dilation_rate": [1, 1], "activation": "linear", "use_bias": true, "kernel_initializer": {"class_name": "VarianceScaling", "config": {"scale": 1.0, "mode": "fan_avg", "distribution": "uniform", "seed": null}}, "bias_initializer": {"class_name": "Zeros", "config": {}}, "kernel_regularizer": null, "bias_regularizer": null, "activity_regularizer": null, "kernel_constraint": null, "bias_constraint": null, "output_padding": null}, "inbound_nodes": [[["concatenate_35", 0, 0, {}]]]}, {"name": "p_re_lu_24", "class_name": "PReLU", "config": {"name": "p_re_lu_24", "trainable": true, "dtype": "float32", "alpha_initializer": {"class_name": "Zeros", "config": {}}, "alpha_regularizer": null, "alpha_constraint": null, "shared_axes": [1, 2]}, "inbound_nodes": [[["conv2d_transpose_10", 0, 0, {}]]]}, {"name": "p_re_lu_37", "class_name": "PReLU", "config": {"name": "p_re_lu_37", "trainable": true, "dtype": "float32", "alpha_initializer": {"class_name": "Zeros", "config": {}}, "alpha_regularizer": null, "alpha_constraint": null, "shared_axes": [1, 2]}, "inbound_nodes": [[["conv2d_transpose_24", 0, 0, {}]]]}, {"name": "p_re_lu_50", "class_name": "PReLU", "config": {"name": "p_re_lu_50", "trainable": true, "dtype": "float32", "alpha_initializer": {"class_name": "Zeros", "config": {}}, "alpha_regularizer": null, "alpha_constraint": null, "shared_axes": [1, 2]}, "inbound_nodes": [[["conv2d_transpose_38", 0, 0, {}]]]}, {"name": "concatenate_10", "class_name": "Concatenate", "config": {"name": "concatenate_10", "trainable": true, "dtype": "float32", "axis": -1}, "inbound_nodes": [[["p_re_lu_24", 0, 0, {}], ["conv2d_4", 0, 0, {}]]]}, {"name": "concatenate_23", "class_name": "Concatenate", "config": {"name": "concatenate_23", "trainable": true, "dtype": "float32", "axis": -1}, "inbound_nodes": [[["p_re_lu_37", 0, 0, {}], ["conv2d_4", 0, 0, {}]]]}, {"name": "concatenate_36", "class_name": "Concatenate", "config": {"name": "concatenate_36", "trainable": true, "dtype": "float32", "axis": -1}, "inbound_nodes": [[["p_re_lu_50", 0, 0, {}], ["conv2d_4", 0, 0, {}]]]}, {"name": "conv2d_transpose_11", "class_name": "Conv2DTranspose", "config": {"name": "conv2d_transpose_11", "trainable": true, "dtype": "float32", "filters": 64, "kernel_size": [8, 1], "strides": [2, 1], "padding": "same", "data_format": "channels_last", "dilation_rate": [1, 1], "activation": "linear", "use_bias": true, "kernel_initializer": {"class_name": "VarianceScaling", "config": {"scale": 1.0, "mode": "fan_avg", "distribution": "uniform", "seed": null}}, "bias_initializer": {"class_name": "Zeros", "config": {}}, "kernel_regularizer": null, "bias_regularizer": null, "activity_regularizer": null, "kernel_constraint": null, "bias_constraint": null, "output_padding": null}, "inbound_nodes": [[["concatenate_10", 0, 0, {}]]]}, {"name": "conv2d_transpose_25", "class_name": "Conv2DTranspose", "config": {"name": "conv2d_transpose_25", "trainable": true, "dtype": "float32", "filters": 64, "kernel_size": [8, 1], "strides": [2, 1], "padding": "same", "data_format": "channels_last", "dilation_rate": [1, 1], "activation": "linear", "use_bias": true, "kernel_initializer": {"class_name": "VarianceScaling", "config": {"scale": 1.0, "mode": "fan_avg", "distribution": "uniform", "seed": null}}, "bias_initializer": {"class_name": "Zeros", "config": {}}, "kernel_regularizer": null, "bias_regularizer": null, "activity_regularizer": null, "kernel_constraint": null, "bias_constraint": null, "output_padding": null}, "inbound_nodes": [[["concatenate_23", 0, 0, {}]]]}, {"name": "conv2d_transpose_39", "class_name": "Conv2DTranspose", "config": {"name": "conv2d_transpose_39", "trainable": true, "dtype": "float32", "filters": 64, "kernel_size": [8, 1], "strides": [2, 1], "padding": "same", "data_format": "channels_last", "dilation_rate": [1, 1], "activation": "linear", "use_bias": true, "kernel_initializer": {"class_name": "VarianceScaling", "config": {"scale": 1.0, "mode": "fan_avg", "distribution": "uniform", "seed": null}}, "bias_initializer": {"class_name": "Zeros", "config": {}}, "kernel_regularizer": null, "bias_regularizer": null, "activity_regularizer": null, "kernel_constraint": null, "bias_constraint": null, "output_padding": null}, "inbound_nodes": [[["concatenate_36", 0, 0, {}]]]}, {"name": "p_re_lu_25", "class_name": "PReLU", "config": {"name": "p_re_lu_25", "trainable": true, "dtype": "float32", "alpha_initializer": {"class_name": "Zeros", "config": {}}, "alpha_regularizer": null, "alpha_constraint": null, "shared_axes": [1, 2]}, "inbound_nodes": [[["conv2d_transpose_11", 0, 0, {}]]]}, {"name": "p_re_lu_38", "class_name": "PReLU", "config": {"name": "p_re_lu_38", "trainable": true, "dtype": "float32", "alpha_initializer": {"class_name": "Zeros", "config": {}}, "alpha_regularizer": null, "alpha_constraint": null, "shared_axes": [1, 2]}, "inbound_nodes": [[["conv2d_transpose_25", 0, 0, {}]]]}, {"name": "p_re_lu_51", "class_name": "PReLU", "config": {"name": "p_re_lu_51", "trainable": true, "dtype": "float32", "alpha_initializer": {"class_name": "Zeros", "config": {}}, "alpha_regularizer": null, "alpha_constraint": null, "shared_axes": [1, 2]}, "inbound_nodes": [[["conv2d_transpose_39", 0, 0, {}]]]}, {"name": "concatenate_11", "class_name": "Concatenate", "config": {"name": "concatenate_11", "trainable": true, "dtype": "float32", "axis": -1}, "inbound_nodes": [[["p_re_lu_25", 0, 0, {}], ["conv2d_3", 0, 0, {}]]]}, {"name": "concatenate_24", "class_name": "Concatenate", "config": {"name": "concatenate_24", "trainable": true, "dtype": "float32", "axis": -1}, "inbound_nodes": [[["p_re_lu_38", 0, 0, {}], ["conv2d_3", 0, 0, {}]]]}, {"name": "concatenate_37", "class_name": "Concatenate", "config": {"name": "concatenate_37", "trainable": true, "dtype": "float32", "axis": -1}, "inbound_nodes": [[["p_re_lu_51", 0, 0, {}], ["conv2d_3", 0, 0, {}]]]}, {"name": "conv2d_transpose_12", "class_name": "Conv2DTranspose", "config": {"name": "conv2d_transpose_12", "trainable": true, "dtype": "float32", "filters": 64, "kernel_size": [8, 1], "strides": [2, 1], "padding": "same", "data_format": "channels_last", "dilation_rate": [1, 1], "activation": "linear", "use_bias": true, "kernel_initializer": {"class_name": "VarianceScaling", "config": {"scale": 1.0, "mode": "fan_avg", "distribution": "uniform", "seed": null}}, "bias_initializer": {"class_name": "Zeros", "config": {}}, "kernel_regularizer": null, "bias_regularizer": null, "activity_regularizer": null, "kernel_constraint": null, "bias_constraint": null, "output_padding": null}, "inbound_nodes": [[["concatenate_11", 0, 0, {}]]]}, {"name": "conv2d_transpose_26", "class_name": "Conv2DTranspose", "config": {"name": "conv2d_transpose_26", "trainable": true, "dtype": "float32", "filters": 64, "kernel_size": [8, 1], "strides": [2, 1], "padding": "same", "data_format": "channels_last", "dilation_rate": [1, 1], "activation": "linear", "use_bias": true, "kernel_initializer": {"class_name": "VarianceScaling", "config": {"scale": 1.0, "mode": "fan_avg", "distribution": "uniform", "seed": null}}, "bias_initializer": {"class_name": "Zeros", "config": {}}, "kernel_regularizer": null, "bias_regularizer": null, "activity_regularizer": null, "kernel_constraint": null, "bias_constraint": null, "output_padding": null}, "inbound_nodes": [[["concatenate_24", 0, 0, {}]]]}, {"name": "conv2d_transpose_40", "class_name": "Conv2DTranspose", "config": {"name": "conv2d_transpose_40", "trainable": true, "dtype": "float32", "filters": 64, "kernel_size": [8, 1], "strides": [2, 1], "padding": "same", "data_format": "channels_last", "dilation_rate": [1, 1], "activation": "linear", "use_bias": true, "kernel_initializer": {"class_name": "VarianceScaling", "config": {"scale": 1.0, "mode": "fan_avg", "distribution": "uniform", "seed": null}}, "bias_initializer": {"class_name": "Zeros", "config": {}}, "kernel_regularizer": null, "bias_regularizer": null, "activity_regularizer": null, "kernel_constraint": null, "bias_constraint": null, "output_padding": null}, "inbound_nodes": [[["concatenate_37", 0, 0, {}]]]}, {"name": "p_re_lu_26", "class_name": "PReLU", "config": {"name": "p_re_lu_26", "trainable": true, "dtype": "float32", "alpha_initializer": {"class_name": "Zeros", "config": {}}, "alpha_regularizer": null, "alpha_constraint": null, "shared_axes": [1, 2]}, "inbound_nodes": [[["conv2d_transpose_12", 0, 0, {}]]]}, {"name": "p_re_lu_39", "class_name": "PReLU", "config": {"name": "p_re_lu_39", "trainable": true, "dtype": "float32", "alpha_initializer": {"class_name": "Zeros", "config": {}}, "alpha_regularizer": null, "alpha_constraint": null, "shared_axes": [1, 2]}, "inbound_nodes": [[["conv2d_transpose_26", 0, 0, {}]]]}, {"name": "p_re_lu_52", "class_name": "PReLU", "config": {"name": "p_re_lu_52", "trainable": true, "dtype": "float32", "alpha_initializer": {"class_name": "Zeros", "config": {}}, "alpha_regularizer": null, "alpha_constraint": null, "shared_axes": [1, 2]}, "inbound_nodes": [[["conv2d_transpose_40", 0, 0, {}]]]}, {"name": "concatenate_12", "class_name": "Concatenate", "config": {"name": "concatenate_12", "trainable": true, "dtype": "float32", "axis": -1}, "inbound_nodes": [[["p_re_lu_26", 0, 0, {}], ["conv2d_2", 0, 0, {}]]]}, {"name": "concatenate_25", "class_name": "Concatenate", "config": {"name": "concatenate_25", "trainable": true, "dtype": "float32", "axis": -1}, "inbound_nodes": [[["p_re_lu_39", 0, 0, {}], ["conv2d_2", 0, 0, {}]]]}, {"name": "concatenate_38", "class_name": "Concatenate", "config": {"name": "concatenate_38", "trainable": true, "dtype": "float32", "axis": -1}, "inbound_nodes": [[["p_re_lu_52", 0, 0, {}], ["conv2d_2", 0, 0, {}]]]}, {"name": "conv2d_transpose_13", "class_name": "Conv2DTranspose", "config": {"name": "conv2d_transpose_13", "trainable": true, "dtype": "float32", "filters": 64, "kernel_size": [8, 1], "strides": [2, 1], "padding": "same", "data_format": "channels_last", "dilation_rate": [1, 1], "activation": "linear", "use_bias": true, "kernel_initializer": {"class_name": "VarianceScaling", "config": {"scale": 1.0, "mode": "fan_avg", "distribution": "uniform", "seed": null}}, "bias_initializer": {"class_name": "Zeros", "config": {}}, "kernel_regularizer": null, "bias_regularizer": null, "activity_regularizer": null, "kernel_constraint": null, "bias_constraint": null, "output_padding": null}, "inbound_nodes": [[["concatenate_12", 0, 0, {}]]]}, {"name": "conv2d_transpose_27", "class_name": "Conv2DTranspose", "config": {"name": "conv2d_transpose_27", "trainable": true, "dtype": "float32", "filters": 64, "kernel_size": [8, 1], "strides": [2, 1], "padding": "same", "data_format": "channels_last", "dilation_rate": [1, 1], "activation": "linear", "use_bias": true, "kernel_initializer": {"class_name": "VarianceScaling", "config": {"scale": 1.0, "mode": "fan_avg", "distribution": "uniform", "seed": null}}, "bias_initializer": {"class_name": "Zeros", "config": {}}, "kernel_regularizer": null, "bias_regularizer": null, "activity_regularizer": null, "kernel_constraint": null, "bias_constraint": null, "output_padding": null}, "inbound_nodes": [[["concatenate_25", 0, 0, {}]]]}, {"name": "conv2d_transpose_41", "class_name": "Conv2DTranspose", "config": {"name": "conv2d_transpose_41", "trainable": true, "dtype": "float32", "filters": 64, "kernel_size": [8, 1], "strides": [2, 1], "padding": "same", "data_format": "channels_last", "dilation_rate": [1, 1], "activation": "linear", "use_bias": true, "kernel_initializer": {"class_name": "VarianceScaling", "config": {"scale": 1.0, "mode": "fan_avg", "distribution": "uniform", "seed": null}}, "bias_initializer": {"class_name": "Zeros", "config": {}}, "kernel_regularizer": null, "bias_regularizer": null, "activity_regularizer": null, "kernel_constraint": null, "bias_constraint": null, "output_padding": null}, "inbound_nodes": [[["concatenate_38", 0, 0, {}]]]}, {"name": "p_re_lu_27", "class_name": "PReLU", "config": {"name": "p_re_lu_27", "trainable": true, "dtype": "float32", "alpha_initializer": {"class_name": "Zeros", "config": {}}, "alpha_regularizer": null, "alpha_constraint": null, "shared_axes": [1, 2]}, "inbound_nodes": [[["conv2d_transpose_13", 0, 0, {}]]]}, {"name": "p_re_lu_40", "class_name": "PReLU", "config": {"name": "p_re_lu_40", "trainable": true, "dtype": "float32", "alpha_initializer": {"class_name": "Zeros", "config": {}}, "alpha_regularizer": null, "alpha_constraint": null, "shared_axes": [1, 2]}, "inbound_nodes": [[["conv2d_transpose_27", 0, 0, {}]]]}, {"name": "p_re_lu_53", "class_name": "PReLU", "config": {"name": "p_re_lu_53", "trainable": true, "dtype": "float32", "alpha_initializer": {"class_name": "Zeros", "config": {}}, "alpha_regularizer": null, "alpha_constraint": null, "shared_axes": [1, 2]}, "inbound_nodes": [[["conv2d_transpose_41", 0, 0, {}]]]}, {"name": "concatenate_13", "class_name": "Concatenate", "config": {"name": "concatenate_13", "trainable": true, "dtype": "float32", "axis": -1}, "inbound_nodes": [[["p_re_lu_27", 0, 0, {}], ["conv2d_1", 0, 0, {}]]]}, {"name": "concatenate_26", "class_name": "Concatenate", "config": {"name": "concatenate_26", "trainable": true, "dtype": "float32", "axis": -1}, "inbound_nodes": [[["p_re_lu_40", 0, 0, {}], ["conv2d_1", 0, 0, {}]]]}, {"name": "concatenate_39", "class_name": "Concatenate", "config": {"name": "concatenate_39", "trainable": true, "dtype": "float32", "axis": -1}, "inbound_nodes": [[["p_re_lu_53", 0, 0, {}], ["conv2d_1", 0, 0, {}]]]}, {"name": "conv2d_transpose_14", "class_name": "Conv2DTranspose", "config": {"name": "conv2d_transpose_14", "trainable": true, "dtype": "float32", "filters": 1, "kernel_size": [8, 1], "strides": [2, 1], "padding": "same", "data_format": "channels_last", "dilation_rate": [1, 1], "activation": "linear", "use_bias": true, "kernel_initializer": {"class_name": "VarianceScaling", "config": {"scale": 1.0, "mode": "fan_avg", "distribution": "uniform", "seed": null}}, "bias_initializer": {"class_name": "Zeros", "config": {}}, "kernel_regularizer": null, "bias_regularizer": null, "activity_regularizer": null, "kernel_constraint": null, "bias_constraint": null, "output_padding": null}, "inbound_nodes": [[["concatenate_13", 0, 0, {}]]]}, {"name": "conv2d_transpose_28", "class_name": "Conv2DTranspose", "config": {"name": "conv2d_transpose_28", "trainable": true, "dtype": "float32", "filters": 1, "kernel_size": [8, 1], "strides": [2, 1], "padding": "same", "data_format": "channels_last", "dilation_rate": [1, 1], "activation": "linear", "use_bias": true, "kernel_initializer": {"class_name": "VarianceScaling", "config": {"scale": 1.0, "mode": "fan_avg", "distribution": "uniform", "seed": null}}, "bias_initializer": {"class_name": "Zeros", "config": {}}, "kernel_regularizer": null, "bias_regularizer": null, "activity_regularizer": null, "kernel_constraint": null, "bias_constraint": null, "output_padding": null}, "inbound_nodes": [[["concatenate_26", 0, 0, {}]]]}, {"name": "conv2d_transpose_42", "class_name": "Conv2DTranspose", "config": {"name": "conv2d_transpose_42", "trainable": true, "dtype": "float32", "filters": 1, "kernel_size": [8, 1], "strides": [2, 1], "padding": "same", "data_format": "channels_last", "dilation_rate": [1, 1], "activation": "linear", "use_bias": true, "kernel_initializer": {"class_name": "VarianceScaling", "config": {"scale": 1.0, "mode": "fan_avg", "distribution": "uniform", "seed": null}}, "bias_initializer": {"class_name": "Zeros", "config": {}}, "kernel_regularizer": null, "bias_regularizer": null, "activity_regularizer": null, "kernel_constraint": null, "bias_constraint": null, "output_padding": null}, "inbound_nodes": [[["concatenate_39", 0, 0, {}]]]}, {"name": "reshape_2", "class_name": "Reshape", "config": {"name": "reshape_2", "trainable": true, "dtype": "float32", "target_shape": [-1, 201]}, "inbound_nodes": [[["conv2d_transpose_14", 0, 0, {}]]]}, {"name": "reshape_3", "class_name": "Reshape", "config": {"name": "reshape_3", "trainable": true, "dtype": "float32", "target_shape": [-1, 201]}, "inbound_nodes": [[["conv2d_transpose_28", 0, 0, {}]]]}, {"name": "reshape_4", "class_name": "Reshape", "config": {"name": "reshape_4", "trainable": true, "dtype": "float32", "target_shape": [-1, 201]}, "inbound_nodes": [[["conv2d_transpose_42", 0, 0, {}]]]}, {"name": "cropping1d_1", "class_name": "Cropping1D", "config": {"name": "cropping1d_1", "trainable": true, "dtype": "float32", "cropping": [7936, 256]}, "inbound_nodes": [[["reshape_2", 0, 0, {}]]]}, {"name": "cropping1d_2", "class_name": "Cropping1D", "config": {"name": "cropping1d_2", "trainable": true, "dtype": "float32", "cropping": [7936, 256]}, "inbound_nodes": [[["reshape_3", 0, 0, {}]]]}, {"name": "cropping1d_3", "class_name": "Cropping1D", "config": {"name": "cropping1d_3", "trainable": true, "dtype": "float32", "cropping": [7936, 256]}, "inbound_nodes": [[["reshape_4", 0, 0, {}]]]}], "input_layers": [["input_1", 0, 0]], "output_layers": [["cropping1d_1", 0, 0], ["cropping1d_2", 0, 0], ["cropping1d_3", 0, 0]]}, "inbound_nodes": [[["bmm_input", 0, 0, {}]]]}], "input_layers": [["bmm_input", 0, 0]], "output_layers": [["model_1", 1, 0], ["model_1", 1, 1], ["model_1", 1, 2]]}, "keras_version": "2.3.1", "backend": "tensorflow"}