{"class_name": "Model", "config": {"name": "model_4", "layers": [{"name": "bmm_input", "class_name": "InputLayer", "config": {"batch_input_shape": [null, null, 21], "dtype": "float32", "sparse": false, "name": "bmm_input"}, "inbound_nodes": []}, {"name": "model_3", "class_name": "Model", "config": {"name": "model_3", "layers": [{"name": "input_2", "class_name": "InputLayer", "config": {"batch_input_shape": [null, null, 21], "dtype": "float32", "sparse": false, "name": "input_2"}, "inbound_nodes": []}, {"name": "reshape_5", "class_name": "Reshape", "config": {"name": "reshape_5", "trainable": true, "dtype": "float32", "target_shape": [-1, 21, 1]}, "inbound_nodes": [[["input_2", 0, 0, {}]]]}, {"name": "conv2d_15", "class_name": "Conv2D", "config": {"name": "conv2d_15", "trainable": true, "dtype": "float32", "filters": 64, "kernel_size": [8, 1], "strides": [2, 1], "padding": "same", "data_format": "channels_last", "dilation_rate": [1, 1], "activation": "linear", "use_bias": true, "kernel_initializer": {"class_name": "VarianceScaling", "config": {"scale": 1.0, "mode": "fan_avg", "distribution": "uniform", "seed": null}}, "bias_initializer": {"class_name": "Zeros", "config": {}}, "kernel_regularizer": null, "bias_regularizer": null, "activity_regularizer": null, "kernel_constraint": null, "bias_constraint": null}, "inbound_nodes": [[["reshape_5", 0, 0, {}]]]}, {"name": "p_re_lu_54", "class_name": "PReLU", "config": {"name": "p_re_lu_54", "trainable": true, "dtype": "float32", "alpha_initializer": {"class_name": "Zeros", "config": {}}, "alpha_regularizer": null, "alpha_constraint": null, "shared_axes": [1, 2]}, "inbound_nodes": [[["conv2d_15", 0, 0, {}]]]}, {"name": "conv2d_16", "class_name": "Conv2D", "config": {"name": "conv2d_16", "trainable": true, "dtype": "float32", "filters": 64, "kernel_size": [8, 1], "strides": [2, 1], "padding": "same", "data_format": "channels_last", "dilation_rate": [1, 1], "activation": "linear", "use_bias": true, "kernel_initializer": {"class_name": "VarianceScaling", "config": {"scale": 1.0, "mode": "fan_avg", "distribution": "uniform", "seed": null}}, "bias_initializer": {"class_name": "Zeros", "config": {}}, "kernel_regularizer": null, "bias_regularizer": null, "activity_regularizer": null, "kernel_constraint": null, "bias_constraint": null}, "inbound_nodes": [[["p_re_lu_54", 0, 0, {}]]]}, {"name": "p_re_lu_55", "class_name": "PReLU", "config": {"name": "p_re_lu_55", "trainable": true, "dtype": "float32", "alpha_initializer": {"class_name": "Zeros", "config": {}}, "alpha_regularizer": null, "alpha_constraint": null, "shared_axes": [1, 2]}, "inbound_nodes": [[["conv2d_16", 0, 0, {}]]]}, {"name": "conv2d_17", "class_name": "Conv2D", "config": {"name": "conv2d_17", "trainable": true, "dtype": "float32", "filters": 64, "kernel_size": [8, 1], "strides": [2, 1], "padding": "same", "data_format": "channels_last", "dilation_rate": [1, 1], "activation": "linear", "use_bias": true, "kernel_initializer": {"class_name": "VarianceScaling", "config": {"scale": 1.0, "mode": "fan_avg", "distribution": "uniform", "seed": null}}, "bias_initializer": {"class_name": "Zeros", "config": {}}, "kernel_regularizer": null, "bias_regularizer": null, "activity_regularizer": null, "kernel_constraint": null, "bias_constraint": null}, "inbound_nodes": [[["p_re_lu_55", 0, 0, {}]]]}, {"name": "p_re_lu_56", "class_name": "PReLU", "config": {"name": "p_re_lu_56", "trainable": true, "dtype": "float32", "alpha_initializer": {"class_name": "Zeros", "config": {}}, "alpha_regularizer": null, "alpha_constraint": null, "shared_axes": [1, 2]}, "inbound_nodes": [[["conv2d_17", 0, 0, {}]]]}, {"name": "conv2d_18", "class_name": "Conv2D", "config": {"name": "conv2d_18", "trainable": true, "dtype": "float32", "filters": 64, "kernel_size": [8, 1], "strides": [2, 1], "padding": "same", "data_format": "channels_last", "dilation_rate": [1, 1], "activation": "linear", "use_bias": true, "kernel_initializer": {"class_name": "VarianceScaling", "config": {"scale": 1.0, "mode": "fan_avg", "distribution": "uniform", "seed": null}}, "bias_initializer": {"class_name": "Zeros", "config": {}}, "kernel_regularizer": null, "bias_regularizer": null, "activity_regularizer": null, "kernel_constraint": null, "bias_constraint": null}, "inbound_nodes": [[["p_re_lu_56", 0, 0, {}]]]}, {"name": "p_re_lu_57", "class_name": "PReLU", "config": {"name": "p_re_lu_57", "trainable": true, "dtype": "float32", "alpha_initializer": {"class_name": "Zeros", "config": {}}, "alpha_regularizer": null, "alpha_constraint": null, "shared_axes": [1, 2]}, "inbound_nodes": [[["conv2d_18", 0, 0, {}]]]}, {"name": "conv2d_19", "class_name": "Conv2D", "config": {"name": "conv2d_19", "trainable": true, "dtype": "float32", "filters": 64, "kernel_size": [8, 1], "strides": [2, 1], "padding": "same", "data_format": "channels_last", "dilation_rate": [1, 1], "activation": "linear", "use_bias": true, "kernel_initializer": {"class_name": "VarianceScaling", "config": {"scale": 1.0, "mode": "fan_avg", "distribution": "uniform", "seed": null}}, "bias_initializer": {"class_name": "Zeros", "config": {}}, "kernel_regularizer": null, "bias_regularizer": null, "activity_regularizer": null, "kernel_constraint": null, "bias_constraint": null}, "inbound_nodes": [[["p_re_lu_57", 0, 0, {}]]]}, {"name": "p_re_lu_58", "class_name": "PReLU", "config": {"name": "p_re_lu_58", "trainable": true, "dtype": "float32", "alpha_initializer": {"class_name": "Zeros", "config": {}}, "alpha_regularizer": null, "alpha_constraint": null, "shared_axes": [1, 2]}, "inbound_nodes": [[["conv2d_19", 0, 0, {}]]]}, {"name": "conv2d_20", "class_name": "Conv2D", "config": {"name": "conv2d_20", "trainable": true, "dtype": "float32", "filters": 64, "kernel_size": [8, 1], "strides": [2, 1], "padding": "same", "data_format": "channels_last", "dilation_rate": [1, 1], "activation": "linear", "use_bias": true, "kernel_initializer": {"class_name": "VarianceScaling", "config": {"scale": 1.0, "mode": "fan_avg", "distribution": "uniform", "seed": null}}, "bias_initializer": {"class_name": "Zeros", "config": {}}, "kernel_regularizer": null, "bias_regularizer": null, "activity_regularizer": null, "kernel_constraint": null, "bias_constraint": null}, "inbound_nodes": [[["p_re_lu_58", 0, 0, {}]]]}, {"name": "p_re_lu_59", "class_name": "PReLU", "config": {"name": "p_re_lu_59", "trainable": true, "dtype": "float32", "alpha_initializer": {"class_name": "Zeros", "config": {}}, "alpha_regularizer": null, "alpha_constraint": null, "shared_axes": [1, 2]}, "inbound_nodes": [[["conv2d_20", 0, 0, {}]]]}, {"name": "conv2d_21", "class_name": "Conv2D", "config": {"name": "conv2d_21", "trainable": true, "dtype": "float32", "filters": 64, "kernel_size": [8, 1], "strides": [2, 1], "padding": "same", "data_format": "channels_last", "dilation_rate": [1, 1], "activation": "linear", "use_bias": true, "kernel_initializer": {"class_name": "VarianceScaling", "config": {"scale": 1.0, "mode": "fan_avg", "distribution": "uniform", "seed": null}}, "bias_initializer": {"class_name": "Zeros", "config": {}}, "kernel_regularizer": null, "bias_regularizer": null, "activity_regularizer": null, "kernel_constraint": null, "bias_constraint": null}, "inbound_nodes": [[["p_re_lu_59", 0, 0, {}]]]}, {"name": "p_re_lu_60", "class_name": "PReLU", "config": {"name": "p_re_lu_60", "trainable": true, "dtype": "float32", "alpha_initializer": {"class_name": "Zeros", "config": {}}, "alpha_regularizer": null, "alpha_constraint": null, "shared_axes": [1, 2]}, "inbound_nodes": [[["conv2d_21", 0, 0, {}]]]}, {"name": "conv2d_22", "class_name": "Conv2D", "config": {"name": "conv2d_22", "trainable": true, "dtype": "float32", "filters": 64, "kernel_size": [8, 1], "strides": [2, 1], "padding": "same", "data_format": "channels_last", "dilation_rate": [1, 1], "activation": "linear", "use_bias": true, "kernel_initializer": {"class_name": "VarianceScaling", "config": {"scale": 1.0, "mode": "fan_avg", "distribution": "uniform", "seed": null}}, "bias_initializer": {"class_name": "Zeros", "config": {}}, "kernel_regularizer": null, "bias_regularizer": null, "activity_regularizer": null, "kernel_constraint": null, "bias_constraint": null}, "inbound_nodes": [[["p_re_lu_60", 0, 0, {}]]]}, {"name": "p_re_lu_61", "class_name": "PReLU", "config": {"name": "p_re_lu_61", "trainable": true, "dtype": "float32", "alpha_initializer": {"class_name": "Zeros", "config": {}}, "alpha_regularizer": null, "alpha_constraint": null, "shared_axes": [1, 2]}, "inbound_nodes": [[["conv2d_22", 0, 0, {}]]]}, {"name": "conv2d_23", "class_name": "Conv2D", "config": {"name": "conv2d_23", "trainable": true, "dtype": "float32", "filters": 64, "kernel_size": [8, 1], "strides": [2, 1], "padding": "same", "data_format": "channels_last", "dilation_rate": [1, 1], "activation": "linear", "use_bias": true, "kernel_initializer": {"class_name": "VarianceScaling", "config": {"scale": 1.0, "mode": "fan_avg", "distribution": "uniform", "seed": null}}, "bias_initializer": {"class_name": "Zeros", "config": {}}, "kernel_regularizer": null, "bias_regularizer": null, "activity_regularizer": null, "kernel_constraint": null, "bias_constraint": null}, "inbound_nodes": [[["p_re_lu_61", 0, 0, {}]]]}, {"name": "p_re_lu_62", "class_name": "PReLU", "config": {"name": "p_re_lu_62", "trainable": true, "dtype": "float32", "alpha_initializer": {"class_name": "Zeros", "config": {}}, "alpha_regularizer": null, "alpha_constraint": null, "shared_axes": [1, 2]}, "inbound_nodes": [[["conv2d_23", 0, 0, {}]]]}, {"name": "conv2d_24", "class_name": "Conv2D", "config": {"name": "conv2d_24", "trainable": true, "dtype": "float32", "filters": 64, "kernel_size": [8, 1], "strides": [2, 1], "padding": "same", "data_format": "channels_last", "dilation_rate": [1, 1], "activation": "linear", "use_bias": true, "kernel_initializer": {"class_name": "VarianceScaling", "config": {"scale": 1.0, "mode": "fan_avg", "distribution": "uniform", "seed": null}}, "bias_initializer": {"class_name": "Zeros", "config": {}}, "kernel_regularizer": null, "bias_regularizer": null, "activity_regularizer": null, "kernel_constraint": null, "bias_constraint": null}, "inbound_nodes": [[["p_re_lu_62", 0, 0, {}]]]}, {"name": "p_re_lu_63", "class_name": "PReLU", "config": {"name": "p_re_lu_63", "trainable": true, "dtype": "float32", "alpha_initializer": {"class_name": "Zeros", "config": {}}, "alpha_regularizer": null, "alpha_constraint": null, "shared_axes": [1, 2]}, "inbound_nodes": [[["conv2d_24", 0, 0, {}]]]}, {"name": "conv2d_25", "class_name": "Conv2D", "config": {"name": "conv2d_25", "trainable": true, "dtype": "float32", "filters": 64, "kernel_size": [8, 1], "strides": [2, 1], "padding": "same", "data_format": "channels_last", "dilation_rate": [1, 1], "activation": "linear", "use_bias": true, "kernel_initializer": {"class_name": "VarianceScaling", "config": {"scale": 1.0, "mode": "fan_avg", "distribution": "uniform", "seed": null}}, "bias_initializer": {"class_name": "Zeros", "config": {}}, "kernel_regularizer": null, "bias_regularizer": null, "activity_regularizer": null, "kernel_constraint": null, "bias_constraint": null}, "inbound_nodes": [[["p_re_lu_63", 0, 0, {}]]]}, {"name": "p_re_lu_64", "class_name": "PReLU", "config": {"name": "p_re_lu_64", "trainable": true, "dtype": "float32", "alpha_initializer": {"class_name": "Zeros", "config": {}}, "alpha_regularizer": null, "alpha_constraint": null, "shared_axes": [1, 2]}, "inbound_nodes": [[["conv2d_25", 0, 0, {}]]]}, {"name": "conv2d_26", "class_name": "Conv2D", "config": {"name": "conv2d_26", "trainable": true, "dtype": "float32", "filters": 64, "kernel_size": [8, 1], "strides": [2, 1], "padding": "same", "data_format": "channels_last", "dilation_rate": [1, 1], "activation": "linear", "use_bias": true, "kernel_initializer": {"class_name": "VarianceScaling", "config": {"scale": 1.0, "mode": "fan_avg", "distribution": "uniform", "seed": null}}, "bias_initializer": {"class_name": "Zeros", "config": {}}, "kernel_regularizer": null, "bias_regularizer": null, "activity_regularizer": null, "kernel_constraint": null, "bias_constraint": null}, "inbound_nodes": [[["p_re_lu_64", 0, 0, {}]]]}, {"name": "p_re_lu_65", "class_name": "PReLU", "config": {"name": "p_re_lu_65", "trainable": true, "dtype": "float32", "alpha_initializer": {"class_name": "Zeros", "config": {}}, "alpha_regularizer": null, "alpha_constraint": null, "shared_axes": [1, 2]}, "inbound_nodes": [[["conv2d_26", 0, 0, {}]]]}, {"name": "conv2d_27", "class_name": "Conv2D", "config": {"name": "conv2d_27", "trainable": true, "dtype": "float32", "filters": 64, "kernel_size": [8, 1], "strides": [2, 1], "padding": "same", "data_format": "channels_last", "dilation_rate": [1, 1], "activation": "linear", "use_bias": true, "kernel_initializer": {"class_name": "VarianceScaling", "config": {"scale": 1.0, "mode": "fan_avg", "distribution": "uniform", "seed": null}}, "bias_initializer": {"class_name": "Zeros", "config": {}}, "kernel_regularizer": null, "bias_regularizer": null, "activity_regularizer": null, "kernel_constraint": null, "bias_constraint": null}, "inbound_nodes": [[["p_re_lu_65", 0, 0, {}]]]}, {"name": "p_re_lu_66", "class_name": "PReLU", "config": {"name": "p_re_lu_66", "trainable": true, "dtype": "float32", "alpha_initializer": {"class_name": "Zeros", "config": {}}, "alpha_regularizer": null, "alpha_constraint": null, "shared_axes": [1, 2]}, "inbound_nodes": [[["conv2d_27", 0, 0, {}]]]}, {"name": "conv2d_28", "class_name": "Conv2D", "config": {"name": "conv2d_28", "trainable": true, "dtype": "float32", "filters": 64, "kernel_size": [8, 1], "strides": [2, 1], "padding": "same", "data_format": "channels_last", "dilation_rate": [1, 1], "activation": "linear", "use_bias": true, "kernel_initializer": {"class_name": "VarianceScaling", "config": {"scale": 1.0, "mode": "fan_avg", "distribution": "uniform", "seed": null}}, "bias_initializer": {"class_name": "Zeros", "config": {}}, "kernel_regularizer": null, "bias_regularizer": null, "activity_regularizer": null, "kernel_constraint": null, "bias_constraint": null}, "inbound_nodes": [[["p_re_lu_66", 0, 0, {}]]]}, {"name": "p_re_lu_67", "class_name": "PReLU", "config": {"name": "p_re_lu_67", "trainable": true, "dtype": "float32", "alpha_initializer": {"class_name": "Zeros", "config": {}}, "alpha_regularizer": null, "alpha_constraint": null, "shared_axes": [1, 2]}, "inbound_nodes": [[["conv2d_28", 0, 0, {}]]]}, {"name": "conv2d_transpose_43", "class_name": "Conv2DTranspose", "config": {"name": "conv2d_transpose_43", "trainable": true, "dtype": "float32", "filters": 64, "kernel_size": [8, 1], "strides": [2, 1], "padding": "same", "data_format": "channels_last", "dilation_rate": [1, 1], "activation": "linear", "use_bias": true, "kernel_initializer": {"class_name": "VarianceScaling", "config": {"scale": 1.0, "mode": "fan_avg", "distribution": "uniform", "seed": null}}, "bias_initializer": {"class_name": "Zeros", "config": {}}, "kernel_regularizer": null, "bias_regularizer": null, "activity_regularizer": null, "kernel_constraint": null, "bias_constraint": null, "output_padding": null}, "inbound_nodes": [[["p_re_lu_67", 0, 0, {}]]]}, {"name": "conv2d_transpose_57", "class_name": "Conv2DTranspose", "config": {"name": "conv2d_transpose_57", "trainable": true, "dtype": "float32", "filters": 64, "kernel_size": [8, 1], "strides": [2, 1], "padding": "same", "data_format": "channels_last", "dilation_rate": [1, 1], "activation": "linear", "use_bias": true, "kernel_initializer": {"class_name": "VarianceScaling", "config": {"scale": 1.0, "mode": "fan_avg", "distribution": "uniform", "seed": null}}, "bias_initializer": {"class_name": "Zeros", "config": {}}, "kernel_regularizer": null, "bias_regularizer": null, "activity_regularizer": null, "kernel_constraint": null, "bias_constraint": null, "output_padding": null}, "inbound_nodes": [[["p_re_lu_67", 0, 0, {}]]]}, {"name": "conv2d_transpose_71", "class_name": "Conv2DTranspose", "config": {"name": "conv2d_transpose_71", "trainable": true, "dtype": "float32", "filters": 64, "kernel_size": [8, 1], "strides": [2, 1], "padding": "same", "data_format": "channels_last", "dilation_rate": [1, 1], "activation": "linear", "use_bias": true, "kernel_initializer": {"class_name": "VarianceScaling", "config": {"scale": 1.0, "mode": "fan_avg", "distribution": "uniform", "seed": null}}, "bias_initializer": {"class_name": "Zeros", "config": {}}, "kernel_regularizer": null, "bias_regularizer": null, "activity_regularizer": null, "kernel_constraint": null, "bias_constraint": null, "output_padding": null}, "inbound_nodes": [[["p_re_lu_67", 0, 0, {}]]]}, {"name": "p_re_lu_68", "class_name": "PReLU", "config": {"name": "p_re_lu_68", "trainable": true, "dtype": "float32", "alpha_initializer": {"class_name": "Zeros", "config": {}}, "alpha_regularizer": null, "alpha_constraint": null, "shared_axes": [1, 2]}, "inbound_nodes": [[["conv2d_transpose_43", 0, 0, {}]]]}, {"name": "p_re_lu_81", "class_name": "PReLU", "config": {"name": "p_re_lu_81", "trainable": true, "dtype": "float32", "alpha_initializer": {"class_name": "Zeros", "config": {}}, "alpha_regularizer": null, "alpha_constraint": null, "shared_axes": [1, 2]}, "inbound_nodes": [[["conv2d_transpose_57", 0, 0, {}]]]}, {"name": "p_re_lu_94", "class_name": "PReLU", "config": {"name": "p_re_lu_94", "trainable": true, "dtype": "float32", "alpha_initializer": {"class_name": "Zeros", "config": {}}, "alpha_regularizer": null, "alpha_constraint": null, "shared_axes": [1, 2]}, "inbound_nodes": [[["conv2d_transpose_71", 0, 0, {}]]]}, {"name": "concatenate_40", "class_name": "Concatenate", "config": {"name": "concatenate_40", "trainable": true, "dtype": "float32", "axis": -1}, "inbound_nodes": [[["p_re_lu_68", 0, 0, {}], ["conv2d_27", 0, 0, {}]]]}, {"name": "concatenate_53", "class_name": "Concatenate", "config": {"name": "concatenate_53", "trainable": true, "dtype": "float32", "axis": -1}, "inbound_nodes": [[["p_re_lu_81", 0, 0, {}], ["conv2d_27", 0, 0, {}]]]}, {"name": "concatenate_66", "class_name": "Concatenate", "config": {"name": "concatenate_66", "trainable": true, "dtype": "float32", "axis": -1}, "inbound_nodes": [[["p_re_lu_94", 0, 0, {}], ["conv2d_27", 0, 0, {}]]]}, {"name": "conv2d_transpose_44", "class_name": "Conv2DTranspose", "config": {"name": "conv2d_transpose_44", "trainable": true, "dtype": "float32", "filters": 64, "kernel_size": [8, 1], "strides": [2, 1], "padding": "same", "data_format": "channels_last", "dilation_rate": [1, 1], "activation": "linear", "use_bias": true, "kernel_initializer": {"class_name": "VarianceScaling", "config": {"scale": 1.0, "mode": "fan_avg", "distribution": "uniform", "seed": null}}, "bias_initializer": {"class_name": "Zeros", "config": {}}, "kernel_regularizer": null, "bias_regularizer": null, "activity_regularizer": null, "kernel_constraint": null, "bias_constraint": null, "output_padding": null}, "inbound_nodes": [[["concatenate_40", 0, 0, {}]]]}, {"name": "conv2d_transpose_58", "class_name": "Conv2DTranspose", "config": {"name": "conv2d_transpose_58", "trainable": true, "dtype": "float32", "filters": 64, "kernel_size": [8, 1], "strides": [2, 1], "padding": "same", "data_format": "channels_last", "dilation_rate": [1, 1], "activation": "linear", "use_bias": true, "kernel_initializer": {"class_name": "VarianceScaling", "config": {"scale": 1.0, "mode": "fan_avg", "distribution": "uniform", "seed": null}}, "bias_initializer": {"class_name": "Zeros", "config": {}}, "kernel_regularizer": null, "bias_regularizer": null, "activity_regularizer": null, "kernel_constraint": null, "bias_constraint": null, "output_padding": null}, "inbound_nodes": [[["concatenate_53", 0, 0, {}]]]}, {"name": "conv2d_transpose_72", "class_name": "Conv2DTranspose", "config": {"name": "conv2d_transpose_72", "trainable": true, "dtype": "float32", "filters": 64, "kernel_size": [8, 1], "strides": [2, 1], "padding": "same", "data_format": "channels_last", "dilation_rate": [1, 1], "activation": "linear", "use_bias": true, "kernel_initializer": {"class_name": "VarianceScaling", "config": {"scale": 1.0, "mode": "fan_avg", "distribution": "uniform", "seed": null}}, "bias_initializer": {"class_name": "Zeros", "config": {}}, "kernel_regularizer": null, "bias_regularizer": null, "activity_regularizer": null, "kernel_constraint": null, "bias_constraint": null, "output_padding": null}, "inbound_nodes": [[["concatenate_66", 0, 0, {}]]]}, {"name": "p_re_lu_69", "class_name": "PReLU", "config": {"name": "p_re_lu_69", "trainable": true, "dtype": "float32", "alpha_initializer": {"class_name": "Zeros", "config": {}}, "alpha_regularizer": null, "alpha_constraint": null, "shared_axes": [1, 2]}, "inbound_nodes": [[["conv2d_transpose_44", 0, 0, {}]]]}, {"name": "p_re_lu_82", "class_name": "PReLU", "config": {"name": "p_re_lu_82", "trainable": true, "dtype": "float32", "alpha_initializer": {"class_name": "Zeros", "config": {}}, "alpha_regularizer": null, "alpha_constraint": null, "shared_axes": [1, 2]}, "inbound_nodes": [[["conv2d_transpose_58", 0, 0, {}]]]}, {"name": "p_re_lu_95", "class_name": "PReLU", "config": {"name": "p_re_lu_95", "trainable": true, "dtype": "float32", "alpha_initializer": {"class_name": "Zeros", "config": {}}, "alpha_regularizer": null, "alpha_constraint": null, "shared_axes": [1, 2]}, "inbound_nodes": [[["conv2d_transpose_72", 0, 0, {}]]]}, {"name": "concatenate_41", "class_name": "Concatenate", "config": {"name": "concatenate_41", "trainable": true, "dtype": "float32", "axis": -1}, "inbound_nodes": [[["p_re_lu_69", 0, 0, {}], ["conv2d_26", 0, 0, {}]]]}, {"name": "concatenate_54", "class_name": "Concatenate", "config": {"name": "concatenate_54", "trainable": true, "dtype": "float32", "axis": -1}, "inbound_nodes": [[["p_re_lu_82", 0, 0, {}], ["conv2d_26", 0, 0, {}]]]}, {"name": "concatenate_67", "class_name": "Concatenate", "config": {"name": "concatenate_67", "trainable": true, "dtype": "float32", "axis": -1}, "inbound_nodes": [[["p_re_lu_95", 0, 0, {}], ["conv2d_26", 0, 0, {}]]]}, {"name": "conv2d_transpose_45", "class_name": "Conv2DTranspose", "config": {"name": "conv2d_transpose_45", "trainable": true, "dtype": "float32", "filters": 64, "kernel_size": [8, 1], "strides": [2, 1], "padding": "same", "data_format": "channels_last", "dilation_rate": [1, 1], "activation": "linear", "use_bias": true, "kernel_initializer": {"class_name": "VarianceScaling", "config": {"scale": 1.0, "mode": "fan_avg", "distribution": "uniform", "seed": null}}, "bias_initializer": {"class_name": "Zeros", "config": {}}, "kernel_regularizer": null, "bias_regularizer": null, "activity_regularizer": null, "kernel_constraint": null, "bias_constraint": null, "output_padding": null}, "inbound_nodes": [[["concatenate_41", 0, 0, {}]]]}, {"name": "conv2d_transpose_59", "class_name": "Conv2DTranspose", "config": {"name": "conv2d_transpose_59", "trainable": true, "dtype": "float32", "filters": 64, "kernel_size": [8, 1], "strides": [2, 1], "padding": "same", "data_format": "channels_last", "dilation_rate": [1, 1], "activation": "linear", "use_bias": true, "kernel_initializer": {"class_name": "VarianceScaling", "config": {"scale": 1.0, "mode": "fan_avg", "distribution": "uniform", "seed": null}}, "bias_initializer": {"class_name": "Zeros", "config": {}}, "kernel_regularizer": null, "bias_regularizer": null, "activity_regularizer": null, "kernel_constraint": null, "bias_constraint": null, "output_padding": null}, "inbound_nodes": [[["concatenate_54", 0, 0, {}]]]}, {"name": "conv2d_transpose_73", "class_name": "Conv2DTranspose", "config": {"name": "conv2d_transpose_73", "trainable": true, "dtype": "float32", "filters": 64, "kernel_size": [8, 1], "strides": [2, 1], "padding": "same", "data_format": "channels_last", "dilation_rate": [1, 1], "activation": "linear", "use_bias": true, "kernel_initializer": {"class_name": "VarianceScaling", "config": {"scale": 1.0, "mode": "fan_avg", "distribution": "uniform", "seed": null}}, "bias_initializer": {"class_name": "Zeros", "config": {}}, "kernel_regularizer": null, "bias_regularizer": null, "activity_regularizer": null, "kernel_constraint": null, "bias_constraint": null, "output_padding": null}, "inbound_nodes": [[["concatenate_67", 0, 0, {}]]]}, {"name": "p_re_lu_70", "class_name": "PReLU", "config": {"name": "p_re_lu_70", "trainable": true, "dtype": "float32", "alpha_initializer": {"class_name": "Zeros", "config": {}}, "alpha_regularizer": null, "alpha_constraint": null, "shared_axes": [1, 2]}, "inbound_nodes": [[["conv2d_transpose_45", 0, 0, {}]]]}, {"name": "p_re_lu_83", "class_name": "PReLU", "config": {"name": "p_re_lu_83", "trainable": true, "dtype": "float32", "alpha_initializer": {"class_name": "Zeros", "config": {}}, "alpha_regularizer": null, "alpha_constraint": null, "shared_axes": [1, 2]}, "inbound_nodes": [[["conv2d_transpose_59", 0, 0, {}]]]}, {"name": "p_re_lu_96", "class_name": "PReLU", "config": {"name": "p_re_lu_96", "trainable": true, "dtype": "float32", "alpha_initializer": {"class_name": "Zeros", "config": {}}, "alpha_regularizer": null, "alpha_constraint": null, "shared_axes": [1, 2]}, "inbound_nodes": [[["conv2d_transpose_73", 0, 0, {}]]]}, {"name": "concatenate_42", "class_name": "Concatenate", "config": {"name": "concatenate_42", "trainable": true, "dtype": "float32", "axis": -1}, "inbound_nodes": [[["p_re_lu_70", 0, 0, {}], ["conv2d_25", 0, 0, {}]]]}, {"name": "concatenate_55", "class_name": "Concatenate", "config": {"name": "concatenate_55", "trainable": true, "dtype": "float32", "axis": -1}, "inbound_nodes": [[["p_re_lu_83", 0, 0, {}], ["conv2d_25", 0, 0, {}]]]}, {"name": "concatenate_68", "class_name": "Concatenate", "config": {"name": "concatenate_68", "trainable": true, "dtype": "float32", "axis": -1}, "inbound_nodes": [[["p_re_lu_96", 0, 0, {}], ["conv2d_25", 0, 0, {}]]]}, {"name": "conv2d_transpose_46", "class_name": "Conv2DTranspose", "config": {"name": "conv2d_transpose_46", "trainable": true, "dtype": "float32", "filters": 64, "kernel_size": [8, 1], "strides": [2, 1], "padding": "same", "data_format": "channels_last", "dilation_rate": [1, 1], "activation": "linear", "use_bias": true, "kernel_initializer": {"class_name": "VarianceScaling", "config": {"scale": 1.0, "mode": "fan_avg", "distribution": "uniform", "seed": null}}, "bias_initializer": {"class_name": "Zeros", "config": {}}, "kernel_regularizer": null, "bias_regularizer": null, "activity_regularizer": null, "kernel_constraint": null, "bias_constraint": null, "output_padding": null}, "inbound_nodes": [[["concatenate_42", 0, 0, {}]]]}, {"name": "conv2d_transpose_60", "class_name": "Conv2DTranspose", "config": {"name": "conv2d_transpose_60", "trainable": true, "dtype": "float32", "filters": 64, "kernel_size": [8, 1], "strides": [2, 1], "padding": "same", "data_format": "channels_last", "dilation_rate": [1, 1], "activation": "linear", "use_bias": true, "kernel_initializer": {"class_name": "VarianceScaling", "config": {"scale": 1.0, "mode": "fan_avg", "distribution": "uniform", "seed": null}}, "bias_initializer": {"class_name": "Zeros", "config": {}}, "kernel_regularizer": null, "bias_regularizer": null, "activity_regularizer": null, "kernel_constraint": null, "bias_constraint": null, "output_padding": null}, "inbound_nodes": [[["concatenate_55", 0, 0, {}]]]}, {"name": "conv2d_transpose_74", "class_name": "Conv2DTranspose", "config": {"name": "conv2d_transpose_74", "trainable": true, "dtype": "float32", "filters": 64, "kernel_size": [8, 1], "strides": [2, 1], "padding": "same", "data_format": "channels_last", "dilation_rate": [1, 1], "activation": "linear", "use_bias": true, "kernel_initializer": {"class_name": "VarianceScaling", "config": {"scale": 1.0, "mode": "fan_avg", "distribution": "uniform", "seed": null}}, "bias_initializer": {"class_name": "Zeros", "config": {}}, "kernel_regularizer": null, "bias_regularizer": null, "activity_regularizer": null, "kernel_constraint": null, "bias_constraint": null, "output_padding": null}, "inbound_nodes": [[["concatenate_68", 0, 0, {}]]]}, {"name": "p_re_lu_71", "class_name": "PReLU", "config": {"name": "p_re_lu_71", "trainable": true, "dtype": "float32", "alpha_initializer": {"class_name": "Zeros", "config": {}}, "alpha_regularizer": null, "alpha_constraint": null, "shared_axes": [1, 2]}, "inbound_nodes": [[["conv2d_transpose_46", 0, 0, {}]]]}, {"name": "p_re_lu_84", "class_name": "PReLU", "config": {"name": "p_re_lu_84", "trainable": true, "dtype": "float32", "alpha_initializer": {"class_name": "Zeros", "config": {}}, "alpha_regularizer": null, "alpha_constraint": null, "shared_axes": [1, 2]}, "inbound_nodes": [[["conv2d_transpose_60", 0, 0, {}]]]}, {"name": "p_re_lu_97", "class_name": "PReLU", "config": {"name": "p_re_lu_97", "trainable": true, "dtype": "float32", "alpha_initializer": {"class_name": "Zeros", "config": {}}, "alpha_regularizer": null, "alpha_constraint": null, "shared_axes": [1, 2]}, "inbound_nodes": [[["conv2d_transpose_74", 0, 0, {}]]]}, {"name": "concatenate_43", "class_name": "Concatenate", "config": {"name": "concatenate_43", "trainable": true, "dtype": "float32", "axis": -1}, "inbound_nodes": [[["p_re_lu_71", 0, 0, {}], ["conv2d_24", 0, 0, {}]]]}, {"name": "concatenate_56", "class_name": "Concatenate", "config": {"name": "concatenate_56", "trainable": true, "dtype": "float32", "axis": -1}, "inbound_nodes": [[["p_re_lu_84", 0, 0, {}], ["conv2d_24", 0, 0, {}]]]}, {"name": "concatenate_69", "class_name": "Concatenate", "config": {"name": "concatenate_69", "trainable": true, "dtype": "float32", "axis": -1}, "inbound_nodes": [[["p_re_lu_97", 0, 0, {}], ["conv2d_24", 0, 0, {}]]]}, {"name": "conv2d_transpose_47", "class_name": "Conv2DTranspose", "config": {"name": "conv2d_transpose_47", "trainable": true, "dtype": "float32", "filters": 64, "kernel_size": [8, 1], "strides": [2, 1], "padding": "same", "data_format": "channels_last", "dilation_rate": [1, 1], "activation": "linear", "use_bias": true, "kernel_initializer": {"class_name": "VarianceScaling", "config": {"scale": 1.0, "mode": "fan_avg", "distribution": "uniform", "seed": null}}, "bias_initializer": {"class_name": "Zeros", "config": {}}, "kernel_regularizer": null, "bias_regularizer": null, "activity_regularizer": null, "kernel_constraint": null, "bias_constraint": null, "output_padding": null}, "inbound_nodes": [[["concatenate_43", 0, 0, {}]]]}, {"name": "conv2d_transpose_61", "class_name": "Conv2DTranspose", "config": {"name": "conv2d_transpose_61", "trainable": true, "dtype": "float32", "filters": 64, "kernel_size": [8, 1], "strides": [2, 1], "padding": "same", "data_format": "channels_last", "dilation_rate": [1, 1], "activation": "linear", "use_bias": true, "kernel_initializer": {"class_name": "VarianceScaling", "config": {"scale": 1.0, "mode": "fan_avg", "distribution": "uniform", "seed": null}}, "bias_initializer": {"class_name": "Zeros", "config": {}}, "kernel_regularizer": null, "bias_regularizer": null, "activity_regularizer": null, "kernel_constraint": null, "bias_constraint": null, "output_padding": null}, "inbound_nodes": [[["concatenate_56", 0, 0, {}]]]}, {"name": "conv2d_transpose_75", "class_name": "Conv2DTranspose", "config": {"name": "conv2d_transpose_75", "trainable": true, "dtype": "float32", "filters": 64, "kernel_size": [8, 1], "strides": [2, 1], "padding": "same", "data_format": "channels_last", "dilation_rate": [1, 1], "activation": "linear", "use_bias": true, "kernel_initializer": {"class_name": "VarianceScaling", "config": {"scale": 1.0, "mode": "fan_avg", "distribution": "uniform", "seed": null}}, "bias_initializer": {"class_name": "Zeros", "config": {}}, "kernel_regularizer": null, "bias_regularizer": null, "activity_regularizer": null, "kernel_constraint": null, "bias_constraint": null, "output_padding": null}, "inbound_nodes": [[["concatenate_69", 0, 0, {}]]]}, {"name": "p_re_lu_72", "class_name": "PReLU", "config": {"name": "p_re_lu_72", "trainable": true, "dtype": "float32", "alpha_initializer": {"class_name": "Zeros", "config": {}}, "alpha_regularizer": null, "alpha_constraint": null, "shared_axes": [1, 2]}, "inbound_nodes": [[["conv2d_transpose_47", 0, 0, {}]]]}, {"name": "p_re_lu_85", "class_name": "PReLU", "config": {"name": "p_re_lu_85", "trainable": true, "dtype": "float32", "alpha_initializer": {"class_name": "Zeros", "config": {}}, "alpha_regularizer": null, "alpha_constraint": null, "shared_axes": [1, 2]}, "inbound_nodes": [[["conv2d_transpose_61", 0, 0, {}]]]}, {"name": "p_re_lu_98", "class_name": "PReLU", "config": {"name": "p_re_lu_98", "trainable": true, "dtype": "float32", "alpha_initializer": {"class_name": "Zeros", "config": {}}, "alpha_regularizer": null, "alpha_constraint": null, "shared_axes": [1, 2]}, "inbound_nodes": [[["conv2d_transpose_75", 0, 0, {}]]]}, {"name": "concatenate_44", "class_name": "Concatenate", "config": {"name": "concatenate_44", "trainable": true, "dtype": "float32", "axis": -1}, "inbound_nodes": [[["p_re_lu_72", 0, 0, {}], ["conv2d_23", 0, 0, {}]]]}, {"name": "concatenate_57", "class_name": "Concatenate", "config": {"name": "concatenate_57", "trainable": true, "dtype": "float32", "axis": -1}, "inbound_nodes": [[["p_re_lu_85", 0, 0, {}], ["conv2d_23", 0, 0, {}]]]}, {"name": "concatenate_70", "class_name": "Concatenate", "config": {"name": "concatenate_70", "trainable": true, "dtype": "float32", "axis": -1}, "inbound_nodes": [[["p_re_lu_98", 0, 0, {}], ["conv2d_23", 0, 0, {}]]]}, {"name": "conv2d_transpose_48", "class_name": "Conv2DTranspose", "config": {"name": "conv2d_transpose_48", "trainable": true, "dtype": "float32", "filters": 64, "kernel_size": [8, 1], "strides": [2, 1], "padding": "same", "data_format": "channels_last", "dilation_rate": [1, 1], "activation": "linear", "use_bias": true, "kernel_initializer": {"class_name": "VarianceScaling", "config": {"scale": 1.0, "mode": "fan_avg", "distribution": "uniform", "seed": null}}, "bias_initializer": {"class_name": "Zeros", "config": {}}, "kernel_regularizer": null, "bias_regularizer": null, "activity_regularizer": null, "kernel_constraint": null, "bias_constraint": null, "output_padding": null}, "inbound_nodes": [[["concatenate_44", 0, 0, {}]]]}, {"name": "conv2d_transpose_62", "class_name": "Conv2DTranspose", "config": {"name": "conv2d_transpose_62", "trainable": true, "dtype": "float32", "filters": 64, "kernel_size": [8, 1], "strides": [2, 1], "padding": "same", "data_format": "channels_last", "dilation_rate": [1, 1], "activation": "linear", "use_bias": true, "kernel_initializer": {"class_name": "VarianceScaling", "config": {"scale": 1.0, "mode": "fan_avg", "distribution": "uniform", "seed": null}}, "bias_initializer": {"class_name": "Zeros", "config": {}}, "kernel_regularizer": null, "bias_regularizer": null, "activity_regularizer": null, "kernel_constraint": null, "bias_constraint": null, "output_padding": null}, "inbound_nodes": [[["concatenate_57", 0, 0, {}]]]}, {"name": "conv2d_transpose_76", "class_name": "Conv2DTranspose", "config": {"name": "conv2d_transpose_76", "trainable": true, "dtype": "float32", "filters": 64, "kernel_size": [8, 1], "strides": [2, 1], "padding": "same", "data_format": "channels_last", "dilation_rate": [1, 1], "activation": "linear", "use_bias": true, "kernel_initializer": {"class_name": "VarianceScaling", "config": {"scale": 1.0, "mode": "fan_avg", "distribution": "uniform", "seed": null}}, "bias_initializer": {"class_name": "Zeros", "config": {}}, "kernel_regularizer": null, "bias_regularizer": null, "activity_regularizer": null, "kernel_constraint": null, "bias_constraint": null, "output_padding": null}, "inbound_nodes": [[["concatenate_70", 0, 0, {}]]]}, {"name": "p_re_lu_73", "class_name": "PReLU", "config": {"name": "p_re_lu_73", "trainable": true, "dtype": "float32", "alpha_initializer": {"class_name": "Zeros", "config": {}}, "alpha_regularizer": null, "alpha_constraint": null, "shared_axes": [1, 2]}, "inbound_nodes": [[["conv2d_transpose_48", 0, 0, {}]]]}, {"name": "p_re_lu_86", "class_name": "PReLU", "config": {"name": "p_re_lu_86", "trainable": true, "dtype": "float32", "alpha_initializer": {"class_name": "Zeros", "config": {}}, "alpha_regularizer": null, "alpha_constraint": null, "shared_axes": [1, 2]}, "inbound_nodes": [[["conv2d_transpose_62", 0, 0, {}]]]}, {"name": "p_re_lu_99", "class_name": "PReLU", "config": {"name": "p_re_lu_99", "trainable": true, "dtype": "float32", "alpha_initializer": {"class_name": "Zeros", "config": {}}, "alpha_regularizer": null, "alpha_constraint": null, "shared_axes": [1, 2]}, "inbound_nodes": [[["conv2d_transpose_76", 0, 0, {}]]]}, {"name": "concatenate_45", "class_name": "Concatenate", "config": {"name": "concatenate_45", "trainable": true, "dtype": "float32", "axis": -1}, "inbound_nodes": [[["p_re_lu_73", 0, 0, {}], ["conv2d_22", 0, 0, {}]]]}, {"name": "concatenate_58", "class_name": "Concatenate", "config": {"name": "concatenate_58", "trainable": true, "dtype": "float32", "axis": -1}, "inbound_nodes": [[["p_re_lu_86", 0, 0, {}], ["conv2d_22", 0, 0, {}]]]}, {"name": "concatenate_71", "class_name": "Concatenate", "config": {"name": "concatenate_71", "trainable": true, "dtype": "float32", "axis": -1}, "inbound_nodes": [[["p_re_lu_99", 0, 0, {}], ["conv2d_22", 0, 0, {}]]]}, {"name": "conv2d_transpose_49", "class_name": "Conv2DTranspose", "config": {"name": "conv2d_transpose_49", "trainable": true, "dtype": "float32", "filters": 64, "kernel_size": [8, 1], "strides": [2, 1], "padding": "same", "data_format": "channels_last", "dilation_rate": [1, 1], "activation": "linear", "use_bias": true, "kernel_initializer": {"class_name": "VarianceScaling", "config": {"scale": 1.0, "mode": "fan_avg", "distribution": "uniform", "seed": null}}, "bias_initializer": {"class_name": "Zeros", "config": {}}, "kernel_regularizer": null, "bias_regularizer": null, "activity_regularizer": null, "kernel_constraint": null, "bias_constraint": null, "output_padding": null}, "inbound_nodes": [[["concatenate_45", 0, 0, {}]]]}, {"name": "conv2d_transpose_63", "class_name": "Conv2DTranspose", "config": {"name": "conv2d_transpose_63", "trainable": true, "dtype": "float32", "filters": 64, "kernel_size": [8, 1], "strides": [2, 1], "padding": "same", "data_format": "channels_last", "dilation_rate": [1, 1], "activation": "linear", "use_bias": true, "kernel_initializer": {"class_name": "VarianceScaling", "config": {"scale": 1.0, "mode": "fan_avg", "distribution": "uniform", "seed": null}}, "bias_initializer": {"class_name": "Zeros", "config": {}}, "kernel_regularizer": null, "bias_regularizer": null, "activity_regularizer": null, "kernel_constraint": null, "bias_constraint": null, "output_padding": null}, "inbound_nodes": [[["concatenate_58", 0, 0, {}]]]}, {"name": "conv2d_transpose_77", "class_name": "Conv2DTranspose", "config": {"name": "conv2d_transpose_77", "trainable": true, "dtype": "float32", "filters": 64, "kernel_size": [8, 1], "strides": [2, 1], "padding": "same", "data_format": "channels_last", "dilation_rate": [1, 1], "activation": "linear", "use_bias": true, "kernel_initializer": {"class_name": "VarianceScaling", "config": {"scale": 1.0, "mode": "fan_avg", "distribution": "uniform", "seed": null}}, "bias_initializer": {"class_name": "Zeros", "config": {}}, "kernel_regularizer": null, "bias_regularizer": null, "activity_regularizer": null, "kernel_constraint": null, "bias_constraint": null, "output_padding": null}, "inbound_nodes": [[["concatenate_71", 0, 0, {}]]]}, {"name": "p_re_lu_74", "class_name": "PReLU", "config": {"name": "p_re_lu_74", "trainable": true, "dtype": "float32", "alpha_initializer": {"class_name": "Zeros", "config": {}}, "alpha_regularizer": null, "alpha_constraint": null, "shared_axes": [1, 2]}, "inbound_nodes": [[["conv2d_transpose_49", 0, 0, {}]]]}, {"name": "p_re_lu_87", "class_name": "PReLU", "config": {"name": "p_re_lu_87", "trainable": true, "dtype": "float32", "alpha_initializer": {"class_name": "Zeros", "config": {}}, "alpha_regularizer": null, "alpha_constraint": null, "shared_axes": [1, 2]}, "inbound_nodes": [[["conv2d_transpose_63", 0, 0, {}]]]}, {"name": "p_re_lu_100", "class_name": "PReLU", "config": {"name": "p_re_lu_100", "trainable": true, "dtype": "float32", "alpha_initializer": {"class_name": "Zeros", "config": {}}, "alpha_regularizer": null, "alpha_constraint": null, "shared_axes": [1, 2]}, "inbound_nodes": [[["conv2d_transpose_77", 0, 0, {}]]]}, {"name": "concatenate_46", "class_name": "Concatenate", "config": {"name": "concatenate_46", "trainable": true, "dtype": "float32", "axis": -1}, "inbound_nodes": [[["p_re_lu_74", 0, 0, {}], ["conv2d_21", 0, 0, {}]]]}, {"name": "concatenate_59", "class_name": "Concatenate", "config": {"name": "concatenate_59", "trainable": true, "dtype": "float32", "axis": -1}, "inbound_nodes": [[["p_re_lu_87", 0, 0, {}], ["conv2d_21", 0, 0, {}]]]}, {"name": "concatenate_72", "class_name": "Concatenate", "config": {"name": "concatenate_72", "trainable": true, "dtype": "float32", "axis": -1}, "inbound_nodes": [[["p_re_lu_100", 0, 0, {}], ["conv2d_21", 0, 0, {}]]]}, {"name": "conv2d_transpose_50", "class_name": "Conv2DTranspose", "config": {"name": "conv2d_transpose_50", "trainable": true, "dtype": "float32", "filters": 64, "kernel_size": [8, 1], "strides": [2, 1], "padding": "same", "data_format": "channels_last", "dilation_rate": [1, 1], "activation": "linear", "use_bias": true, "kernel_initializer": {"class_name": "VarianceScaling", "config": {"scale": 1.0, "mode": "fan_avg", "distribution": "uniform", "seed": null}}, "bias_initializer": {"class_name": "Zeros", "config": {}}, "kernel_regularizer": null, "bias_regularizer": null, "activity_regularizer": null, "kernel_constraint": null, "bias_constraint": null, "output_padding": null}, "inbound_nodes": [[["concatenate_46", 0, 0, {}]]]}, {"name": "conv2d_transpose_64", "class_name": "Conv2DTranspose", "config": {"name": "conv2d_transpose_64", "trainable": true, "dtype": "float32", "filters": 64, "kernel_size": [8, 1], "strides": [2, 1], "padding": "same", "data_format": "channels_last", "dilation_rate": [1, 1], "activation": "linear", "use_bias": true, "kernel_initializer": {"class_name": "VarianceScaling", "config": {"scale": 1.0, "mode": "fan_avg", "distribution": "uniform", "seed": null}}, "bias_initializer": {"class_name": "Zeros", "config": {}}, "kernel_regularizer": null, "bias_regularizer": null, "activity_regularizer": null, "kernel_constraint": null, "bias_constraint": null, "output_padding": null}, "inbound_nodes": [[["concatenate_59", 0, 0, {}]]]}, {"name": "conv2d_transpose_78", "class_name": "Conv2DTranspose", "config": {"name": "conv2d_transpose_78", "trainable": true, "dtype": "float32", "filters": 64, "kernel_size": [8, 1], "strides": [2, 1], "padding": "same", "data_format": "channels_last", "dilation_rate": [1, 1], "activation": "linear", "use_bias": true, "kernel_initializer": {"class_name": "VarianceScaling", "config": {"scale": 1.0, "mode": "fan_avg", "distribution": "uniform", "seed": null}}, "bias_initializer": {"class_name": "Zeros", "config": {}}, "kernel_regularizer": null, "bias_regularizer": null, "activity_regularizer": null, "kernel_constraint": null, "bias_constraint": null, "output_padding": null}, "inbound_nodes": [[["concatenate_72", 0, 0, {}]]]}, {"name": "p_re_lu_75", "class_name": "PReLU", "config": {"name": "p_re_lu_75", "trainable": true, "dtype": "float32", "alpha_initializer": {"class_name": "Zeros", "config": {}}, "alpha_regularizer": null, "alpha_constraint": null, "shared_axes": [1, 2]}, "inbound_nodes": [[["conv2d_transpose_50", 0, 0, {}]]]}, {"name": "p_re_lu_88", "class_name": "PReLU", "config": {"name": "p_re_lu_88", "trainable": true, "dtype": "float32", "alpha_initializer": {"class_name": "Zeros", "config": {}}, "alpha_regularizer": null, "alpha_constraint": null, "shared_axes": [1, 2]}, "inbound_nodes": [[["conv2d_transpose_64", 0, 0, {}]]]}, {"name": "p_re_lu_101", "class_name": "PReLU", "config": {"name": "p_re_lu_101", "trainable": true, "dtype": "float32", "alpha_initializer": {"class_name": "Zeros", "config": {}}, "alpha_regularizer": null, "alpha_constraint": null, "shared_axes": [1, 2]}, "inbound_nodes": [[["conv2d_transpose_78", 0, 0, {}]]]}, {"name": "concatenate_47", "class_name": "Concatenate", "config": {"name": "concatenate_47", "trainable": true, "dtype": "float32", "axis": -1}, "inbound_nodes": [[["p_re_lu_75", 0, 0, {}], ["conv2d_20", 0, 0, {}]]]}, {"name": "concatenate_60", "class_name": "Concatenate", "config": {"name": "concatenate_60", "trainable": true, "dtype": "float32", "axis": -1}, "inbound_nodes": [[["p_re_lu_88", 0, 0, {}], ["conv2d_20", 0, 0, {}]]]}, {"name": "concatenate_73", "class_name": "Concatenate", "config": {"name": "concatenate_73", "trainable": true, "dtype": "float32", "axis": -1}, "inbound_nodes": [[["p_re_lu_101", 0, 0, {}], ["conv2d_20", 0, 0, {}]]]}, {"name": "conv2d_transpose_51", "class_name": "Conv2DTranspose", "config": {"name": "conv2d_transpose_51", "trainable": true, "dtype": "float32", "filters": 64, "kernel_size": [8, 1], "strides": [2, 1], "padding": "same", "data_format": "channels_last", "dilation_rate": [1, 1], "activation": "linear", "use_bias": true, "kernel_initializer": {"class_name": "VarianceScaling", "config": {"scale": 1.0, "mode": "fan_avg", "distribution": "uniform", "seed": null}}, "bias_initializer": {"class_name": "Zeros", "config": {}}, "kernel_regularizer": null, "bias_regularizer": null, "activity_regularizer": null, "kernel_constraint": null, "bias_constraint": null, "output_padding": null}, "inbound_nodes": [[["concatenate_47", 0, 0, {}]]]}, {"name": "conv2d_transpose_65", "class_name": "Conv2DTranspose", "config": {"name": "conv2d_transpose_65", "trainable": true, "dtype": "float32", "filters": 64, "kernel_size": [8, 1], "strides": [2, 1], "padding": "same", "data_format": "channels_last", "dilation_rate": [1, 1], "activation": "linear", "use_bias": true, "kernel_initializer": {"class_name": "VarianceScaling", "config": {"scale": 1.0, "mode": "fan_avg", "distribution": "uniform", "seed": null}}, "bias_initializer": {"class_name": "Zeros", "config": {}}, "kernel_regularizer": null, "bias_regularizer": null, "activity_regularizer": null, "kernel_constraint": null, "bias_constraint": null, "output_padding": null}, "inbound_nodes": [[["concatenate_60", 0, 0, {}]]]}, {"name": "conv2d_transpose_79", "class_name": "Conv2DTranspose", "config": {"name": "conv2d_transpose_79", "trainable": true, "dtype": "float32", "filters": 64, "kernel_size": [8, 1], "strides": [2, 1], "padding": "same", "data_format": "channels_last", "dilation_rate": [1, 1], "activation": "linear", "use_bias": true, "kernel_initializer": {"class_name": "VarianceScaling", "config": {"scale": 1.0, "mode": "fan_avg", "distribution": "uniform", "seed": null}}, "bias_initializer": {"class_name": "Zeros", "config": {}}, "kernel_regularizer": null, "bias_regularizer": null, "activity_regularizer": null, "kernel_constraint": null, "bias_constraint": null, "output_padding": null}, "inbound_nodes": [[["concatenate_73", 0, 0, {}]]]}, {"name": "p_re_lu_76", "class_name": "PReLU", "config": {"name": "p_re_lu_76", "trainable": true, "dtype": "float32", "alpha_initializer": {"class_name": "Zeros", "config": {}}, "alpha_regularizer": null, "alpha_constraint": null, "shared_axes": [1, 2]}, "inbound_nodes": [[["conv2d_transpose_51", 0, 0, {}]]]}, {"name": "p_re_lu_89", "class_name": "PReLU", "config": {"name": "p_re_lu_89", "trainable": true, "dtype": "float32", "alpha_initializer": {"class_name": "Zeros", "config": {}}, "alpha_regularizer": null, "alpha_constraint": null, "shared_axes": [1, 2]}, "inbound_nodes": [[["conv2d_transpose_65", 0, 0, {}]]]}, {"name": "p_re_lu_102", "class_name": "PReLU", "config": {"name": "p_re_lu_102", "trainable": true, "dtype": "float32", "alpha_initializer": {"class_name": "Zeros", "config": {}}, "alpha_regularizer": null, "alpha_constraint": null, "shared_axes": [1, 2]}, "inbound_nodes": [[["conv2d_transpose_79", 0, 0, {}]]]}, {"name": "concatenate_48", "class_name": "Concatenate", "config": {"name": "concatenate_48", "trainable": true, "dtype": "float32", "axis": -1}, "inbound_nodes": [[["p_re_lu_76", 0, 0, {}], ["conv2d_19", 0, 0, {}]]]}, {"name": "concatenate_61", "class_name": "Concatenate", "config": {"name": "concatenate_61", "trainable": true, "dtype": "float32", "axis": -1}, "inbound_nodes": [[["p_re_lu_89", 0, 0, {}], ["conv2d_19", 0, 0, {}]]]}, {"name": "concatenate_74", "class_name": "Concatenate", "config": {"name": "concatenate_74", "trainable": true, "dtype": "float32", "axis": -1}, "inbound_nodes": [[["p_re_lu_102", 0, 0, {}], ["conv2d_19", 0, 0, {}]]]}, {"name": "conv2d_transpose_52", "class_name": "Conv2DTranspose", "config": {"name": "conv2d_transpose_52", "trainable": true, "dtype": "float32", "filters": 64, "kernel_size": [8, 1], "strides": [2, 1], "padding": "same", "data_format": "channels_last", "dilation_rate": [1, 1], "activation": "linear", "use_bias": true, "kernel_initializer": {"class_name": "VarianceScaling", "config": {"scale": 1.0, "mode": "fan_avg", "distribution": "uniform", "seed": null}}, "bias_initializer": {"class_name": "Zeros", "config": {}}, "kernel_regularizer": null, "bias_regularizer": null, "activity_regularizer": null, "kernel_constraint": null, "bias_constraint": null, "output_padding": null}, "inbound_nodes": [[["concatenate_48", 0, 0, {}]]]}, {"name": "conv2d_transpose_66", "class_name": "Conv2DTranspose", "config": {"name": "conv2d_transpose_66", "trainable": true, "dtype": "float32", "filters": 64, "kernel_size": [8, 1], "strides": [2, 1], "padding": "same", "data_format": "channels_last", "dilation_rate": [1, 1], "activation": "linear", "use_bias": true, "kernel_initializer": {"class_name": "VarianceScaling", "config": {"scale": 1.0, "mode": "fan_avg", "distribution": "uniform", "seed": null}}, "bias_initializer": {"class_name": "Zeros", "config": {}}, "kernel_regularizer": null, "bias_regularizer": null, "activity_regularizer": null, "kernel_constraint": null, "bias_constraint": null, "output_padding": null}, "inbound_nodes": [[["concatenate_61", 0, 0, {}]]]}, {"name": "conv2d_transpose_80", "class_name": "Conv2DTranspose", "config": {"name": "conv2d_transpose_80", "trainable": true, "dtype": "float32", "filters": 64, "kernel_size": [8, 1], "strides": [2, 1], "padding": "same", "data_format": "channels_last", "dilation_rate": [1, 1], "activation": "linear", "use_bias": true, "kernel_initializer": {"class_name": "VarianceScaling", "config": {"scale": 1.0, "mode": "fan_avg", "distribution": "uniform", "seed": null}}, "bias_initializer": {"class_name": "Zeros", "config": {}}, "kernel_regularizer": null, "bias_regularizer": null, "activity_regularizer": null, "kernel_constraint": null, "bias_constraint": null, "output_padding": null}, "inbound_nodes": [[["concatenate_74", 0, 0, {}]]]}, {"name": "p_re_lu_77", "class_name": "PReLU", "config": {"name": "p_re_lu_77", "trainable": true, "dtype": "float32", "alpha_initializer": {"class_name": "Zeros", "config": {}}, "alpha_regularizer": null, "alpha_constraint": null, "shared_axes": [1, 2]}, "inbound_nodes": [[["conv2d_transpose_52", 0, 0, {}]]]}, {"name": "p_re_lu_90", "class_name": "PReLU", "config": {"name": "p_re_lu_90", "trainable": true, "dtype": "float32", "alpha_initializer": {"class_name": "Zeros", "config": {}}, "alpha_regularizer": null, "alpha_constraint": null, "shared_axes": [1, 2]}, "inbound_nodes": [[["conv2d_transpose_66", 0, 0, {}]]]}, {"name": "p_re_lu_103", "class_name": "PReLU", "config": {"name": "p_re_lu_103", "trainable": true, "dtype": "float32", "alpha_initializer": {"class_name": "Zeros", "config": {}}, "alpha_regularizer": null, "alpha_constraint": null, "shared_axes": [1, 2]}, "inbound_nodes": [[["conv2d_transpose_80", 0, 0, {}]]]}, {"name": "concatenate_49", "class_name": "Concatenate", "config": {"name": "concatenate_49", "trainable": true, "dtype": "float32", "axis": -1}, "inbound_nodes": [[["p_re_lu_77", 0, 0, {}], ["conv2d_18", 0, 0, {}]]]}, {"name": "concatenate_62", "class_name": "Concatenate", "config": {"name": "concatenate_62", "trainable": true, "dtype": "float32", "axis": -1}, "inbound_nodes": [[["p_re_lu_90", 0, 0, {}], ["conv2d_18", 0, 0, {}]]]}, {"name": "concatenate_75", "class_name": "Concatenate", "config": {"name": "concatenate_75", "trainable": true, "dtype": "float32", "axis": -1}, "inbound_nodes": [[["p_re_lu_103", 0, 0, {}], ["conv2d_18", 0, 0, {}]]]}, {"name": "conv2d_transpose_53", "class_name": "Conv2DTranspose", "config": {"name": "conv2d_transpose_53", "trainable": true, "dtype": "float32", "filters": 64, "kernel_size": [8, 1], "strides": [2, 1], "padding": "same", "data_format": "channels_last", "dilation_rate": [1, 1], "activation": "linear", "use_bias": true, "kernel_initializer": {"class_name": "VarianceScaling", "config": {"scale": 1.0, "mode": "fan_avg", "distribution": "uniform", "seed": null}}, "bias_initializer": {"class_name": "Zeros", "config": {}}, "kernel_regularizer": null, "bias_regularizer": null, "activity_regularizer": null, "kernel_constraint": null, "bias_constraint": null, "output_padding": null}, "inbound_nodes": [[["concatenate_49", 0, 0, {}]]]}, {"name": "conv2d_transpose_67", "class_name": "Conv2DTranspose", "config": {"name": "conv2d_transpose_67", "trainable": true, "dtype": "float32", "filters": 64, "kernel_size": [8, 1], "strides": [2, 1], "padding": "same", "data_format": "channels_last", "dilation_rate": [1, 1], "activation": "linear", "use_bias": true, "kernel_initializer": {"class_name": "VarianceScaling", "config": {"scale": 1.0, "mode": "fan_avg", "distribution": "uniform", "seed": null}}, "bias_initializer": {"class_name": "Zeros", "config": {}}, "kernel_regularizer": null, "bias_regularizer": null, "activity_regularizer": null, "kernel_constraint": null, "bias_constraint": null, "output_padding": null}, "inbound_nodes": [[["concatenate_62", 0, 0, {}]]]}, {"name": "conv2d_transpose_81", "class_name": "Conv2DTranspose", "config": {"name": "conv2d_transpose_81", "trainable": true, "dtype": "float32", "filters": 64, "kernel_size": [8, 1], "strides": [2, 1], "padding": "same", "data_format": "channels_last", "dilation_rate": [1, 1], "activation": "linear", "use_bias": true, "kernel_initializer": {"class_name": "VarianceScaling", "config": {"scale": 1.0, "mode": "fan_avg", "distribution": "uniform", "seed": null}}, "bias_initializer": {"class_name": "Zeros", "config": {}}, "kernel_regularizer": null, "bias_regularizer": null, "activity_regularizer": null, "kernel_constraint": null, "bias_constraint": null, "output_padding": null}, "inbound_nodes": [[["concatenate_75", 0, 0, {}]]]}, {"name": "p_re_lu_78", "class_name": "PReLU", "config": {"name": "p_re_lu_78", "trainable": true, "dtype": "float32", "alpha_initializer": {"class_name": "Zeros", "config": {}}, "alpha_regularizer": null, "alpha_constraint": null, "shared_axes": [1, 2]}, "inbound_nodes": [[["conv2d_transpose_53", 0, 0, {}]]]}, {"name": "p_re_lu_91", "class_name": "PReLU", "config": {"name": "p_re_lu_91", "trainable": true, "dtype": "float32", "alpha_initializer": {"class_name": "Zeros", "config": {}}, "alpha_regularizer": null, "alpha_constraint": null, "shared_axes": [1, 2]}, "inbound_nodes": [[["conv2d_transpose_67", 0, 0, {}]]]}, {"name": "p_re_lu_104", "class_name": "PReLU", "config": {"name": "p_re_lu_104", "trainable": true, "dtype": "float32", "alpha_initializer": {"class_name": "Zeros", "config": {}}, "alpha_regularizer": null, "alpha_constraint": null, "shared_axes": [1, 2]}, "inbound_nodes": [[["conv2d_transpose_81", 0, 0, {}]]]}, {"name": "concatenate_50", "class_name": "Concatenate", "config": {"name": "concatenate_50", "trainable": true, "dtype": "float32", "axis": -1}, "inbound_nodes": [[["p_re_lu_78", 0, 0, {}], ["conv2d_17", 0, 0, {}]]]}, {"name": "concatenate_63", "class_name": "Concatenate", "config": {"name": "concatenate_63", "trainable": true, "dtype": "float32", "axis": -1}, "inbound_nodes": [[["p_re_lu_91", 0, 0, {}], ["conv2d_17", 0, 0, {}]]]}, {"name": "concatenate_76", "class_name": "Concatenate", "config": {"name": "concatenate_76", "trainable": true, "dtype": "float32", "axis": -1}, "inbound_nodes": [[["p_re_lu_104", 0, 0, {}], ["conv2d_17", 0, 0, {}]]]}, {"name": "conv2d_transpose_54", "class_name": "Conv2DTranspose", "config": {"name": "conv2d_transpose_54", "trainable": true, "dtype": "float32", "filters": 64, "kernel_size": [8, 1], "strides": [2, 1], "padding": "same", "data_format": "channels_last", "dilation_rate": [1, 1], "activation": "linear", "use_bias": true, "kernel_initializer": {"class_name": "VarianceScaling", "config": {"scale": 1.0, "mode": "fan_avg", "distribution": "uniform", "seed": null}}, "bias_initializer": {"class_name": "Zeros", "config": {}}, "kernel_regularizer": null, "bias_regularizer": null, "activity_regularizer": null, "kernel_constraint": null, "bias_constraint": null, "output_padding": null}, "inbound_nodes": [[["concatenate_50", 0, 0, {}]]]}, {"name": "conv2d_transpose_68", "class_name": "Conv2DTranspose", "config": {"name": "conv2d_transpose_68", "trainable": true, "dtype": "float32", "filters": 64, "kernel_size": [8, 1], "strides": [2, 1], "padding": "same", "data_format": "channels_last", "dilation_rate": [1, 1], "activation": "linear", "use_bias": true, "kernel_initializer": {"class_name": "VarianceScaling", "config": {"scale": 1.0, "mode": "fan_avg", "distribution": "uniform", "seed": null}}, "bias_initializer": {"class_name": "Zeros", "config": {}}, "kernel_regularizer": null, "bias_regularizer": null, "activity_regularizer": null, "kernel_constraint": null, "bias_constraint": null, "output_padding": null}, "inbound_nodes": [[["concatenate_63", 0, 0, {}]]]}, {"name": "conv2d_transpose_82", "class_name": "Conv2DTranspose", "config": {"name": "conv2d_transpose_82", "trainable": true, "dtype": "float32", "filters": 64, "kernel_size": [8, 1], "strides": [2, 1], "padding": "same", "data_format": "channels_last", "dilation_rate": [1, 1], "activation": "linear", "use_bias": true, "kernel_initializer": {"class_name": "VarianceScaling", "config": {"scale": 1.0, "mode": "fan_avg", "distribution": "uniform", "seed": null}}, "bias_initializer": {"class_name": "Zeros", "config": {}}, "kernel_regularizer": null, "bias_regularizer": null, "activity_regularizer": null, "kernel_constraint": null, "bias_constraint": null, "output_padding": null}, "inbound_nodes": [[["concatenate_76", 0, 0, {}]]]}, {"name": "p_re_lu_79", "class_name": "PReLU", "config": {"name": "p_re_lu_79", "trainable": true, "dtype": "float32", "alpha_initializer": {"class_name": "Zeros", "config": {}}, "alpha_regularizer": null, "alpha_constraint": null, "shared_axes": [1, 2]}, "inbound_nodes": [[["conv2d_transpose_54", 0, 0, {}]]]}, {"name": "p_re_lu_92", "class_name": "PReLU", "config": {"name": "p_re_lu_92", "trainable": true, "dtype": "float32", "alpha_initializer": {"class_name": "Zeros", "config": {}}, "alpha_regularizer": null, "alpha_constraint": null, "shared_axes": [1, 2]}, "inbound_nodes": [[["conv2d_transpose_68", 0, 0, {}]]]}, {"name": "p_re_lu_105", "class_name": "PReLU", "config": {"name": "p_re_lu_105", "trainable": true, "dtype": "float32", "alpha_initializer": {"class_name": "Zeros", "config": {}}, "alpha_regularizer": null, "alpha_constraint": null, "shared_axes": [1, 2]}, "inbound_nodes": [[["conv2d_transpose_82", 0, 0, {}]]]}, {"name": "concatenate_51", "class_name": "Concatenate", "config": {"name": "concatenate_51", "trainable": true, "dtype": "float32", "axis": -1}, "inbound_nodes": [[["p_re_lu_79", 0, 0, {}], ["conv2d_16", 0, 0, {}]]]}, {"name": "concatenate_64", "class_name": "Concatenate", "config": {"name": "concatenate_64", "trainable": true, "dtype": "float32", "axis": -1}, "inbound_nodes": [[["p_re_lu_92", 0, 0, {}], ["conv2d_16", 0, 0, {}]]]}, {"name": "concatenate_77", "class_name": "Concatenate", "config": {"name": "concatenate_77", "trainable": true, "dtype": "float32", "axis": -1}, "inbound_nodes": [[["p_re_lu_105", 0, 0, {}], ["conv2d_16", 0, 0, {}]]]}, {"name": "conv2d_transpose_55", "class_name": "Conv2DTranspose", "config": {"name": "conv2d_transpose_55", "trainable": true, "dtype": "float32", "filters": 64, "kernel_size": [8, 1], "strides": [2, 1], "padding": "same", "data_format": "channels_last", "dilation_rate": [1, 1], "activation": "linear", "use_bias": true, "kernel_initializer": {"class_name": "VarianceScaling", "config": {"scale": 1.0, "mode": "fan_avg", "distribution": "uniform", "seed": null}}, "bias_initializer": {"class_name": "Zeros", "config": {}}, "kernel_regularizer": null, "bias_regularizer": null, "activity_regularizer": null, "kernel_constraint": null, "bias_constraint": null, "output_padding": null}, "inbound_nodes": [[["concatenate_51", 0, 0, {}]]]}, {"name": "conv2d_transpose_69", "class_name": "Conv2DTranspose", "config": {"name": "conv2d_transpose_69", "trainable": true, "dtype": "float32", "filters": 64, "kernel_size": [8, 1], "strides": [2, 1], "padding": "same", "data_format": "channels_last", "dilation_rate": [1, 1], "activation": "linear", "use_bias": true, "kernel_initializer": {"class_name": "VarianceScaling", "config": {"scale": 1.0, "mode": "fan_avg", "distribution": "uniform", "seed": null}}, "bias_initializer": {"class_name": "Zeros", "config": {}}, "kernel_regularizer": null, "bias_regularizer": null, "activity_regularizer": null, "kernel_constraint": null, "bias_constraint": null, "output_padding": null}, "inbound_nodes": [[["concatenate_64", 0, 0, {}]]]}, {"name": "conv2d_transpose_83", "class_name": "Conv2DTranspose", "config": {"name": "conv2d_transpose_83", "trainable": true, "dtype": "float32", "filters": 64, "kernel_size": [8, 1], "strides": [2, 1], "padding": "same", "data_format": "channels_last", "dilation_rate": [1, 1], "activation": "linear", "use_bias": true, "kernel_initializer": {"class_name": "VarianceScaling", "config": {"scale": 1.0, "mode": "fan_avg", "distribution": "uniform", "seed": null}}, "bias_initializer": {"class_name": "Zeros", "config": {}}, "kernel_regularizer": null, "bias_regularizer": null, "activity_regularizer": null, "kernel_constraint": null, "bias_constraint": null, "output_padding": null}, "inbound_nodes": [[["concatenate_77", 0, 0, {}]]]}, {"name": "p_re_lu_80", "class_name": "PReLU", "config": {"name": "p_re_lu_80", "trainable": true, "dtype": "float32", "alpha_initializer": {"class_name": "Zeros", "config": {}}, "alpha_regularizer": null, "alpha_constraint": null, "shared_axes": [1, 2]}, "inbound_nodes": [[["conv2d_transpose_55", 0, 0, {}]]]}, {"name": "p_re_lu_93", "class_name": "PReLU", "config": {"name": "p_re_lu_93", "trainable": true, "dtype": "float32", "alpha_initializer": {"class_name": "Zeros", "config": {}}, "alpha_regularizer": null, "alpha_constraint": null, "shared_axes": [1, 2]}, "inbound_nodes": [[["conv2d_transpose_69", 0, 0, {}]]]}, {"name": "p_re_lu_106", "class_name": "PReLU", "config": {"name": "p_re_lu_106", "trainable": true, "dtype": "float32", "alpha_initializer": {"class_name": "Zeros", "config": {}}, "alpha_regularizer": null, "alpha_constraint": null, "shared_axes": [1, 2]}, "inbound_nodes": [[["conv2d_transpose_83", 0, 0, {}]]]}, {"name": "concatenate_52", "class_name": "Concatenate", "config": {"name": "concatenate_52", "trainable": true, "dtype": "float32", "axis": -1}, "inbound_nodes": [[["p_re_lu_80", 0, 0, {}], ["conv2d_15", 0, 0, {}]]]}, {"name": "concatenate_65", "class_name": "Concatenate", "config": {"name": "concatenate_65", "trainable": true, "dtype": "float32", "axis": -1}, "inbound_nodes": [[["p_re_lu_93", 0, 0, {}], ["conv2d_15", 0, 0, {}]]]}, {"name": "concatenate_78", "class_name": "Concatenate", "config": {"name": "concatenate_78", "trainable": true, "dtype": "float32", "axis": -1}, "inbound_nodes": [[["p_re_lu_106", 0, 0, {}], ["conv2d_15", 0, 0, {}]]]}, {"name": "conv2d_transpose_56", "class_name": "Conv2DTranspose", "config": {"name": "conv2d_transpose_56", "trainable": true, "dtype": "float32", "filters": 1, "kernel_size": [8, 1], "strides": [2, 1], "padding": "same", "data_format": "channels_last", "dilation_rate": [1, 1], "activation": "linear", "use_bias": true, "kernel_initializer": {"class_name": "VarianceScaling", "config": {"scale": 1.0, "mode": "fan_avg", "distribution": "uniform", "seed": null}}, "bias_initializer": {"class_name": "Zeros", "config": {}}, "kernel_regularizer": null, "bias_regularizer": null, "activity_regularizer": null, "kernel_constraint": null, "bias_constraint": null, "output_padding": null}, "inbound_nodes": [[["concatenate_52", 0, 0, {}]]]}, {"name": "conv2d_transpose_70", "class_name": "Conv2DTranspose", "config": {"name": "conv2d_transpose_70", "trainable": true, "dtype": "float32", "filters": 1, "kernel_size": [8, 1], "strides": [2, 1], "padding": "same", "data_format": "channels_last", "dilation_rate": [1, 1], "activation": "linear", "use_bias": true, "kernel_initializer": {"class_name": "VarianceScaling", "config": {"scale": 1.0, "mode": "fan_avg", "distribution": "uniform", "seed": null}}, "bias_initializer": {"class_name": "Zeros", "config": {}}, "kernel_regularizer": null, "bias_regularizer": null, "activity_regularizer": null, "kernel_constraint": null, "bias_constraint": null, "output_padding": null}, "inbound_nodes": [[["concatenate_65", 0, 0, {}]]]}, {"name": "conv2d_transpose_84", "class_name": "Conv2DTranspose", "config": {"name": "conv2d_transpose_84", "trainable": true, "dtype": "float32", "filters": 1, "kernel_size": [8, 1], "strides": [2, 1], "padding": "same", "data_format": "channels_last", "dilation_rate": [1, 1], "activation": "linear", "use_bias": true, "kernel_initializer": {"class_name": "VarianceScaling", "config": {"scale": 1.0, "mode": "fan_avg", "distribution": "uniform", "seed": null}}, "bias_initializer": {"class_name": "Zeros", "config": {}}, "kernel_regularizer": null, "bias_regularizer": null, "activity_regularizer": null, "kernel_constraint": null, "bias_constraint": null, "output_padding": null}, "inbound_nodes": [[["concatenate_78", 0, 0, {}]]]}, {"name": "reshape_6", "class_name": "Reshape", "config": {"name": "reshape_6", "trainable": true, "dtype": "float32", "target_shape": [-1, 21]}, "inbound_nodes": [[["conv2d_transpose_56", 0, 0, {}]]]}, {"name": "reshape_7", "class_name": "Reshape", "config": {"name": "reshape_7", "trainable": true, "dtype": "float32", "target_shape": [-1, 21]}, "inbound_nodes": [[["conv2d_transpose_70", 0, 0, {}]]]}, {"name": "reshape_8", "class_name": "Reshape", "config": {"name": "reshape_8", "trainable": true, "dtype": "float32", "target_shape": [-1, 21]}, "inbound_nodes": [[["conv2d_transpose_84", 0, 0, {}]]]}, {"name": "cropping1d_7", "class_name": "Cropping1D", "config": {"name": "cropping1d_7", "trainable": true, "dtype": "float32", "cropping": [7936, 256]}, "inbound_nodes": [[["reshape_6", 0, 0, {}]]]}, {"name": "cropping1d_8", "class_name": "Cropping1D", "config": {"name": "cropping1d_8", "trainable": true, "dtype": "float32", "cropping": [7936, 256]}, "inbound_nodes": [[["reshape_7", 0, 0, {}]]]}, {"name": "cropping1d_9", "class_name": "Cropping1D", "config": {"name": "cropping1d_9", "trainable": true, "dtype": "float32", "cropping": [7936, 256]}, "inbound_nodes": [[["reshape_8", 0, 0, {}]]]}], "input_layers": [["input_2", 0, 0]], "output_layers": [["cropping1d_7", 0, 0], ["cropping1d_8", 0, 0], ["cropping1d_9", 0, 0]]}, "inbound_nodes": [[["bmm_input", 0, 0, {}]]]}], "input_layers": [["bmm_input", 0, 0]], "output_layers": [["model_3", 1, 0], ["model_3", 1, 1], ["model_3", 1, 2]]}, "keras_version": "2.3.1", "backend": "tensorflow"}